<?xml version="1.0" ?>
<net name="cnn_fd_004_sq_light_ssd" version="10">
	<layers>
		<layer id="0" name="167316775229" type="Const" version="opset1">
			<data element_type="f16" offset="0" shape="" size="2"/>
			<output>
				<port id="0" precision="FP16"/>
			</output>
		</layer>
		<layer id="1" name="167416785487" type="Const" version="opset1">
			<data element_type="f16" offset="2" shape="" size="2"/>
			<output>
				<port id="0" precision="FP16"/>
			</output>
		</layer>
		<layer id="2" name="167516795235" type="Const" version="opset1">
			<data element_type="f16" offset="0" shape="" size="2"/>
			<output>
				<port id="0" precision="FP16"/>
			</output>
		</layer>
		<layer id="3" name="167616804881" type="Const" version="opset1">
			<data element_type="f16" offset="2" shape="" size="2"/>
			<output>
				<port id="0" precision="FP16"/>
			</output>
		</layer>
		<layer id="4" name="9589625124" type="Const" version="opset1">
			<data element_type="f16" offset="0" shape="" size="2"/>
			<output>
				<port id="0" precision="FP16"/>
			</output>
		</layer>
		<layer id="5" name="9599635196" type="Const" version="opset1">
			<data element_type="f16" offset="4" shape="" size="2"/>
			<output>
				<port id="0" precision="FP16"/>
			</output>
		</layer>
		<layer id="6" name="9609645577" type="Const" version="opset1">
			<data element_type="f16" offset="0" shape="" size="2"/>
			<output>
				<port id="0" precision="FP16"/>
			</output>
		</layer>
		<layer id="7" name="9619654959" type="Const" version="opset1">
			<data element_type="f16" offset="4" shape="" size="2"/>
			<output>
				<port id="0" precision="FP16"/>
			</output>
		</layer>
		<layer id="8" name="172317274944" type="Const" version="opset1">
			<data element_type="f16" offset="0" shape="" size="2"/>
			<output>
				<port id="0" precision="FP16"/>
			</output>
		</layer>
		<layer id="9" name="172417285181" type="Const" version="opset1">
			<data element_type="f16" offset="6" shape="" size="2"/>
			<output>
				<port id="0" precision="FP16"/>
			</output>
		</layer>
		<layer id="10" name="172517295586" type="Const" version="opset1">
			<data element_type="f16" offset="0" shape="" size="2"/>
			<output>
				<port id="0" precision="FP16"/>
			</output>
		</layer>
		<layer id="11" name="172617304923" type="Const" version="opset1">
			<data element_type="f16" offset="6" shape="" size="2"/>
			<output>
				<port id="0" precision="FP16"/>
			</output>
		</layer>
		<layer id="12" name="7587625145" type="Const" version="opset1">
			<data element_type="f16" offset="0" shape="" size="2"/>
			<output>
				<port id="0" precision="FP16"/>
			</output>
		</layer>
		<layer id="13" name="7597635256" type="Const" version="opset1">
			<data element_type="f16" offset="8" shape="" size="2"/>
			<output>
				<port id="0" precision="FP16"/>
			</output>
		</layer>
		<layer id="14" name="7607645646" type="Const" version="opset1">
			<data element_type="f16" offset="0" shape="" size="2"/>
			<output>
				<port id="0" precision="FP16"/>
			</output>
		</layer>
		<layer id="15" name="7617655148" type="Const" version="opset1">
			<data element_type="f16" offset="8" shape="" size="2"/>
			<output>
				<port id="0" precision="FP16"/>
			</output>
		</layer>
		<layer id="16" name="170317075283" type="Const" version="opset1">
			<data element_type="f16" offset="0" shape="" size="2"/>
			<output>
				<port id="0" precision="FP16"/>
			</output>
		</layer>
		<layer id="17" name="170417084980" type="Const" version="opset1">
			<data element_type="f16" offset="10" shape="" size="2"/>
			<output>
				<port id="0" precision="FP16"/>
			</output>
		</layer>
		<layer id="18" name="170517095457" type="Const" version="opset1">
			<data element_type="f16" offset="0" shape="" size="2"/>
			<output>
				<port id="0" precision="FP16"/>
			</output>
		</layer>
		<layer id="19" name="170617105679" type="Const" version="opset1">
			<data element_type="f16" offset="10" shape="" size="2"/>
			<output>
				<port id="0" precision="FP16"/>
			</output>
		</layer>
		<layer id="20" name="7187225268" type="Const" version="opset1">
			<data element_type="f16" offset="0" shape="" size="2"/>
			<output>
				<port id="0" precision="FP16"/>
			</output>
		</layer>
		<layer id="21" name="7197234899" type="Const" version="opset1">
			<data element_type="f16" offset="12" shape="" size="2"/>
			<output>
				<port id="0" precision="FP16"/>
			</output>
		</layer>
		<layer id="22" name="7207245562" type="Const" version="opset1">
			<data element_type="f16" offset="0" shape="" size="2"/>
			<output>
				<port id="0" precision="FP16"/>
			</output>
		</layer>
		<layer id="23" name="7217255538" type="Const" version="opset1">
			<data element_type="f16" offset="12" shape="" size="2"/>
			<output>
				<port id="0" precision="FP16"/>
			</output>
		</layer>
		<layer id="24" name="187318775109" type="Const" version="opset1">
			<data element_type="f16" offset="0" shape="" size="2"/>
			<output>
				<port id="0" precision="FP16"/>
			</output>
		</layer>
		<layer id="25" name="187418785112" type="Const" version="opset1">
			<data element_type="f16" offset="14" shape="" size="2"/>
			<output>
				<port id="0" precision="FP16"/>
			</output>
		</layer>
		<layer id="26" name="187518794878" type="Const" version="opset1">
			<data element_type="f16" offset="0" shape="" size="2"/>
			<output>
				<port id="0" precision="FP16"/>
			</output>
		</layer>
		<layer id="27" name="187618805118" type="Const" version="opset1">
			<data element_type="f16" offset="14" shape="" size="2"/>
			<output>
				<port id="0" precision="FP16"/>
			</output>
		</layer>
		<layer id="28" name="125812625220" type="Const" version="opset1">
			<data element_type="f16" offset="0" shape="" size="2"/>
			<output>
				<port id="0" precision="FP16"/>
			</output>
		</layer>
		<layer id="29" name="125912635676" type="Const" version="opset1">
			<data element_type="f16" offset="16" shape="" size="2"/>
			<output>
				<port id="0" precision="FP16"/>
			</output>
		</layer>
		<layer id="30" name="126012645505" type="Const" version="opset1">
			<data element_type="f16" offset="0" shape="" size="2"/>
			<output>
				<port id="0" precision="FP16"/>
			</output>
		</layer>
		<layer id="31" name="126112655649" type="Const" version="opset1">
			<data element_type="f16" offset="16" shape="" size="2"/>
			<output>
				<port id="0" precision="FP16"/>
			</output>
		</layer>
		<layer id="32" name="185318575160" type="Const" version="opset1">
			<data element_type="f16" offset="0" shape="" size="2"/>
			<output>
				<port id="0" precision="FP16"/>
			</output>
		</layer>
		<layer id="33" name="185418585424" type="Const" version="opset1">
			<data element_type="f16" offset="18" shape="" size="2"/>
			<output>
				<port id="0" precision="FP16"/>
			</output>
		</layer>
		<layer id="34" name="185518595061" type="Const" version="opset1">
			<data element_type="f16" offset="0" shape="" size="2"/>
			<output>
				<port id="0" precision="FP16"/>
			</output>
		</layer>
		<layer id="35" name="185618604869" type="Const" version="opset1">
			<data element_type="f16" offset="18" shape="" size="2"/>
			<output>
				<port id="0" precision="FP16"/>
			</output>
		</layer>
		<layer id="36" name="117811825466" type="Const" version="opset1">
			<data element_type="f16" offset="0" shape="" size="2"/>
			<output>
				<port id="0" precision="FP16"/>
			</output>
		</layer>
		<layer id="37" name="117911835298" type="Const" version="opset1">
			<data element_type="f16" offset="20" shape="" size="2"/>
			<output>
				<port id="0" precision="FP16"/>
			</output>
		</layer>
		<layer id="38" name="118011845325" type="Const" version="opset1">
			<data element_type="f16" offset="0" shape="" size="2"/>
			<output>
				<port id="0" precision="FP16"/>
			</output>
		</layer>
		<layer id="39" name="118111855571" type="Const" version="opset1">
			<data element_type="f16" offset="20" shape="" size="2"/>
			<output>
				<port id="0" precision="FP16"/>
			</output>
		</layer>
		<layer id="40" name="183318375292" type="Const" version="opset1">
			<data element_type="f16" offset="0" shape="" size="2"/>
			<output>
				<port id="0" precision="FP16"/>
			</output>
		</layer>
		<layer id="41" name="183418385475" type="Const" version="opset1">
			<data element_type="f16" offset="22" shape="" size="2"/>
			<output>
				<port id="0" precision="FP16"/>
			</output>
		</layer>
		<layer id="42" name="183518395532" type="Const" version="opset1">
			<data element_type="f16" offset="0" shape="" size="2"/>
			<output>
				<port id="0" precision="FP16"/>
			</output>
		</layer>
		<layer id="43" name="183618405046" type="Const" version="opset1">
			<data element_type="f16" offset="22" shape="" size="2"/>
			<output>
				<port id="0" precision="FP16"/>
			</output>
		</layer>
		<layer id="44" name="105810624968" type="Const" version="opset1">
			<data element_type="f16" offset="0" shape="" size="2"/>
			<output>
				<port id="0" precision="FP16"/>
			</output>
		</layer>
		<layer id="45" name="105910635400" type="Const" version="opset1">
			<data element_type="f16" offset="24" shape="" size="2"/>
			<output>
				<port id="0" precision="FP16"/>
			</output>
		</layer>
		<layer id="46" name="106010645154" type="Const" version="opset1">
			<data element_type="f16" offset="0" shape="" size="2"/>
			<output>
				<port id="0" precision="FP16"/>
			</output>
		</layer>
		<layer id="47" name="106110654911" type="Const" version="opset1">
			<data element_type="f16" offset="24" shape="" size="2"/>
			<output>
				<port id="0" precision="FP16"/>
			</output>
		</layer>
		<layer id="48" name="181318175628" type="Const" version="opset1">
			<data element_type="f16" offset="0" shape="" size="2"/>
			<output>
				<port id="0" precision="FP16"/>
			</output>
		</layer>
		<layer id="49" name="181418185289" type="Const" version="opset1">
			<data element_type="f16" offset="26" shape="" size="2"/>
			<output>
				<port id="0" precision="FP16"/>
			</output>
		</layer>
		<layer id="50" name="181518195079" type="Const" version="opset1">
			<data element_type="f16" offset="0" shape="" size="2"/>
			<output>
				<port id="0" precision="FP16"/>
			</output>
		</layer>
		<layer id="51" name="181618204890" type="Const" version="opset1">
			<data element_type="f16" offset="26" shape="" size="2"/>
			<output>
				<port id="0" precision="FP16"/>
			</output>
		</layer>
		<layer id="52" name="8989024893" type="Const" version="opset1">
			<data element_type="f16" offset="0" shape="" size="2"/>
			<output>
				<port id="0" precision="FP16"/>
			</output>
		</layer>
		<layer id="53" name="8999035106" type="Const" version="opset1">
			<data element_type="f16" offset="28" shape="" size="2"/>
			<output>
				<port id="0" precision="FP16"/>
			</output>
		</layer>
		<layer id="54" name="9009045037" type="Const" version="opset1">
			<data element_type="f16" offset="0" shape="" size="2"/>
			<output>
				<port id="0" precision="FP16"/>
			</output>
		</layer>
		<layer id="55" name="9019055670" type="Const" version="opset1">
			<data element_type="f16" offset="28" shape="" size="2"/>
			<output>
				<port id="0" precision="FP16"/>
			</output>
		</layer>
		<layer id="56" name="179317975574" type="Const" version="opset1">
			<data element_type="f16" offset="0" shape="" size="2"/>
			<output>
				<port id="0" precision="FP16"/>
			</output>
		</layer>
		<layer id="57" name="179417985403" type="Const" version="opset1">
			<data element_type="f16" offset="30" shape="" size="2"/>
			<output>
				<port id="0" precision="FP16"/>
			</output>
		</layer>
		<layer id="58" name="179517995100" type="Const" version="opset1">
			<data element_type="f16" offset="0" shape="" size="2"/>
			<output>
				<port id="0" precision="FP16"/>
			</output>
		</layer>
		<layer id="59" name="179618004974" type="Const" version="opset1">
			<data element_type="f16" offset="30" shape="" size="2"/>
			<output>
				<port id="0" precision="FP16"/>
			</output>
		</layer>
		<layer id="60" name="129813025130" type="Const" version="opset1">
			<data element_type="f16" offset="0" shape="" size="2"/>
			<output>
				<port id="0" precision="FP16"/>
			</output>
		</layer>
		<layer id="61" name="129913035322" type="Const" version="opset1">
			<data element_type="f16" offset="32" shape="" size="2"/>
			<output>
				<port id="0" precision="FP16"/>
			</output>
		</layer>
		<layer id="62" name="130013045286" type="Const" version="opset1">
			<data element_type="f16" offset="0" shape="" size="2"/>
			<output>
				<port id="0" precision="FP16"/>
			</output>
		</layer>
		<layer id="63" name="130113055445" type="Const" version="opset1">
			<data element_type="f16" offset="32" shape="" size="2"/>
			<output>
				<port id="0" precision="FP16"/>
			</output>
		</layer>
		<layer id="64" name="177317775010" type="Const" version="opset1">
			<data element_type="f16" offset="0" shape="" size="2"/>
			<output>
				<port id="0" precision="FP16"/>
			</output>
		</layer>
		<layer id="65" name="177417785076" type="Const" version="opset1">
			<data element_type="f16" offset="34" shape="" size="2"/>
			<output>
				<port id="0" precision="FP16"/>
			</output>
		</layer>
		<layer id="66" name="177517794992" type="Const" version="opset1">
			<data element_type="f16" offset="0" shape="" size="2"/>
			<output>
				<port id="0" precision="FP16"/>
			</output>
		</layer>
		<layer id="67" name="177617804998" type="Const" version="opset1">
			<data element_type="f16" offset="34" shape="" size="2"/>
			<output>
				<port id="0" precision="FP16"/>
			</output>
		</layer>
		<layer id="68" name="7988025133" type="Const" version="opset1">
			<data element_type="f16" offset="0" shape="" size="2"/>
			<output>
				<port id="0" precision="FP16"/>
			</output>
		</layer>
		<layer id="69" name="7998035025" type="Const" version="opset1">
			<data element_type="f16" offset="36" shape="" size="2"/>
			<output>
				<port id="0" precision="FP16"/>
			</output>
		</layer>
		<layer id="70" name="8008045253" type="Const" version="opset1">
			<data element_type="f16" offset="0" shape="" size="2"/>
			<output>
				<port id="0" precision="FP16"/>
			</output>
		</layer>
		<layer id="71" name="8018055517" type="Const" version="opset1">
			<data element_type="f16" offset="36" shape="" size="2"/>
			<output>
				<port id="0" precision="FP16"/>
			</output>
		</layer>
		<layer id="72" name="175317575340" type="Const" version="opset1">
			<data element_type="f16" offset="0" shape="" size="2"/>
			<output>
				<port id="0" precision="FP16"/>
			</output>
		</layer>
		<layer id="73" name="175417584872" type="Const" version="opset1">
			<data element_type="f16" offset="38" shape="" size="2"/>
			<output>
				<port id="0" precision="FP16"/>
			</output>
		</layer>
		<layer id="74" name="175517595580" type="Const" version="opset1">
			<data element_type="f16" offset="0" shape="" size="2"/>
			<output>
				<port id="0" precision="FP16"/>
			</output>
		</layer>
		<layer id="75" name="175617604863" type="Const" version="opset1">
			<data element_type="f16" offset="38" shape="" size="2"/>
			<output>
				<port id="0" precision="FP16"/>
			</output>
		</layer>
		<layer id="76" name="7387424965" type="Const" version="opset1">
			<data element_type="f16" offset="0" shape="" size="2"/>
			<output>
				<port id="0" precision="FP16"/>
			</output>
		</layer>
		<layer id="77" name="7397435565" type="Const" version="opset1">
			<data element_type="f16" offset="40" shape="" size="2"/>
			<output>
				<port id="0" precision="FP16"/>
			</output>
		</layer>
		<layer id="78" name="7407445541" type="Const" version="opset1">
			<data element_type="f16" offset="0" shape="" size="2"/>
			<output>
				<port id="0" precision="FP16"/>
			</output>
		</layer>
		<layer id="79" name="7417455187" type="Const" version="opset1">
			<data element_type="f16" offset="40" shape="" size="2"/>
			<output>
				<port id="0" precision="FP16"/>
			</output>
		</layer>
		<layer id="80" name="174317474962" type="Const" version="opset1">
			<data element_type="f16" offset="0" shape="" size="2"/>
			<output>
				<port id="0" precision="FP16"/>
			</output>
		</layer>
		<layer id="81" name="174417484950" type="Const" version="opset1">
			<data element_type="f16" offset="42" shape="" size="2"/>
			<output>
				<port id="0" precision="FP16"/>
			</output>
		</layer>
		<layer id="82" name="174517495409" type="Const" version="opset1">
			<data element_type="f16" offset="0" shape="" size="2"/>
			<output>
				<port id="0" precision="FP16"/>
			</output>
		</layer>
		<layer id="83" name="174617505274" type="Const" version="opset1">
			<data element_type="f16" offset="42" shape="" size="2"/>
			<output>
				<port id="0" precision="FP16"/>
			</output>
		</layer>
		<layer id="84" name="113811425514" type="Const" version="opset1">
			<data element_type="f16" offset="44" shape="" size="2"/>
			<output>
				<port id="0" precision="FP16"/>
			</output>
		</layer>
		<layer id="85" name="113911435058" type="Const" version="opset1">
			<data element_type="f16" offset="46" shape="" size="2"/>
			<output>
				<port id="0" precision="FP16"/>
			</output>
		</layer>
		<layer id="86" name="114011445556" type="Const" version="opset1">
			<data element_type="f16" offset="44" shape="" size="2"/>
			<output>
				<port id="0" precision="FP16"/>
			</output>
		</layer>
		<layer id="87" name="114111455271" type="Const" version="opset1">
			<data element_type="f16" offset="46" shape="" size="2"/>
			<output>
				<port id="0" precision="FP16"/>
			</output>
		</layer>
		<layer id="88" name="data" type="Parameter" version="opset1">
			<data element_type="f16" shape="1,3,300,300"/>
			<output>
				<port id="0" names="data" precision="FP16">
					<dim>1</dim>
					<dim>3</dim>
					<dim>300</dim>
					<dim>300</dim>
				</port>
			</output>
		</layer>
		<layer id="89" name="1372095040" type="Const" version="opset1">
			<data element_type="f16" offset="48" shape="1,3,1,1" size="6"/>
			<output>
				<port id="0" precision="FP16">
					<dim>1</dim>
					<dim>3</dim>
					<dim>1</dim>
					<dim>1</dim>
				</port>
			</output>
		</layer>
		<layer id="90" name="Scale1/Mul_" type="Multiply" version="opset1">
			<data auto_broadcast="numpy"/>
			<input>
				<port id="0">
					<dim>1</dim>
					<dim>3</dim>
					<dim>300</dim>
					<dim>300</dim>
				</port>
				<port id="1">
					<dim>1</dim>
					<dim>3</dim>
					<dim>1</dim>
					<dim>1</dim>
				</port>
			</input>
			<output>
				<port id="2" precision="FP16">
					<dim>1</dim>
					<dim>3</dim>
					<dim>300</dim>
					<dim>300</dim>
				</port>
			</output>
		</layer>
		<layer id="91" name="1382115211" type="Const" version="opset1">
			<data element_type="f16" offset="54" shape="1,3,1,1" size="6"/>
			<output>
				<port id="0" precision="FP16">
					<dim>1</dim>
					<dim>3</dim>
					<dim>1</dim>
					<dim>1</dim>
				</port>
			</output>
		</layer>
		<layer id="92" name="Scale1/Add_" type="Add" version="opset1">
			<data auto_broadcast="numpy"/>
			<input>
				<port id="0">
					<dim>1</dim>
					<dim>3</dim>
					<dim>300</dim>
					<dim>300</dim>
				</port>
				<port id="1">
					<dim>1</dim>
					<dim>3</dim>
					<dim>1</dim>
					<dim>1</dim>
				</port>
			</input>
			<output>
				<port id="2" names="data" precision="FP16">
					<dim>1</dim>
					<dim>3</dim>
					<dim>300</dim>
					<dim>300</dim>
				</port>
			</output>
		</layer>
		<layer id="93" name="Convolution1/WithoutBiases/fq_input_0" type="FakeQuantize" version="opset1">
			<data auto_broadcast="numpy" levels="256"/>
			<input>
				<port id="0">
					<dim>1</dim>
					<dim>3</dim>
					<dim>300</dim>
					<dim>300</dim>
				</port>
				<port id="1"/>
				<port id="2"/>
				<port id="3"/>
				<port id="4"/>
			</input>
			<output>
				<port id="5" precision="FP16">
					<dim>1</dim>
					<dim>3</dim>
					<dim>300</dim>
					<dim>300</dim>
				</port>
			</output>
		</layer>
		<layer id="94" name="1112132616/quantized35145472" type="Const" version="opset1">
			<data element_type="i8" offset="60" shape="32,3,7,7" size="4704"/>
			<output>
				<port id="0" precision="I8">
					<dim>32</dim>
					<dim>3</dim>
					<dim>7</dim>
					<dim>7</dim>
				</port>
			</output>
		</layer>
		<layer id="95" name="1112132616/quantized/to_f16" type="Convert" version="opset1">
			<data destination_type="f16"/>
			<input>
				<port id="0">
					<dim>32</dim>
					<dim>3</dim>
					<dim>7</dim>
					<dim>7</dim>
				</port>
			</input>
			<output>
				<port id="1" precision="FP16">
					<dim>32</dim>
					<dim>3</dim>
					<dim>7</dim>
					<dim>7</dim>
				</port>
			</output>
		</layer>
		<layer id="96" name="Convolution1/WithoutBiases/fq_weights_1/zero_point35275640" type="Const" version="opset1">
			<data element_type="f16" offset="4764" shape="32,1,1,1" size="64"/>
			<output>
				<port id="0" precision="FP16">
					<dim>32</dim>
					<dim>1</dim>
					<dim>1</dim>
					<dim>1</dim>
				</port>
			</output>
		</layer>
		<layer id="97" name="Convolution1/WithoutBiases/fq_weights_1/minus_zp" type="Subtract" version="opset1">
			<data auto_broadcast="numpy"/>
			<input>
				<port id="0">
					<dim>32</dim>
					<dim>3</dim>
					<dim>7</dim>
					<dim>7</dim>
				</port>
				<port id="1">
					<dim>32</dim>
					<dim>1</dim>
					<dim>1</dim>
					<dim>1</dim>
				</port>
			</input>
			<output>
				<port id="2" precision="FP16">
					<dim>32</dim>
					<dim>3</dim>
					<dim>7</dim>
					<dim>7</dim>
				</port>
			</output>
		</layer>
		<layer id="98" name="Convolution1/WithoutBiases/fq_weights_1/scale35225442" type="Const" version="opset1">
			<data element_type="f16" offset="4828" shape="32,1,1,1" size="64"/>
			<output>
				<port id="0" precision="FP16">
					<dim>32</dim>
					<dim>1</dim>
					<dim>1</dim>
					<dim>1</dim>
				</port>
			</output>
		</layer>
		<layer id="99" name="Convolution1/WithoutBiases/fq_weights_1/mulpiply_by_scale" type="Multiply" version="opset1">
			<data auto_broadcast="numpy"/>
			<input>
				<port id="0">
					<dim>32</dim>
					<dim>3</dim>
					<dim>7</dim>
					<dim>7</dim>
				</port>
				<port id="1">
					<dim>32</dim>
					<dim>1</dim>
					<dim>1</dim>
					<dim>1</dim>
				</port>
			</input>
			<output>
				<port id="2" precision="FP16">
					<dim>32</dim>
					<dim>3</dim>
					<dim>7</dim>
					<dim>7</dim>
				</port>
			</output>
		</layer>
		<layer id="100" name="Convolution1/WithoutBiases" type="Convolution" version="opset1">
			<data auto_pad="explicit" dilations="1,1" pads_begin="3,3" pads_end="3,3" strides="2,2"/>
			<input>
				<port id="0">
					<dim>1</dim>
					<dim>3</dim>
					<dim>300</dim>
					<dim>300</dim>
				</port>
				<port id="1">
					<dim>32</dim>
					<dim>3</dim>
					<dim>7</dim>
					<dim>7</dim>
				</port>
			</input>
			<output>
				<port id="2" precision="FP16">
					<dim>1</dim>
					<dim>32</dim>
					<dim>150</dim>
					<dim>150</dim>
				</port>
			</output>
		</layer>
		<layer id="101" name="Convolution1/Dims14512155658" type="Const" version="opset1">
			<data element_type="f16" offset="4892" shape="1,32,1,1" size="64"/>
			<output>
				<port id="0" precision="FP16">
					<dim>1</dim>
					<dim>32</dim>
					<dim>1</dim>
					<dim>1</dim>
				</port>
			</output>
		</layer>
		<layer id="102" name="Convolution1" type="Add" version="opset1">
			<data auto_broadcast="numpy"/>
			<input>
				<port id="0">
					<dim>1</dim>
					<dim>32</dim>
					<dim>150</dim>
					<dim>150</dim>
				</port>
				<port id="1">
					<dim>1</dim>
					<dim>32</dim>
					<dim>1</dim>
					<dim>1</dim>
				</port>
			</input>
			<output>
				<port id="2" names="Convolution1" precision="FP16">
					<dim>1</dim>
					<dim>32</dim>
					<dim>150</dim>
					<dim>150</dim>
				</port>
			</output>
		</layer>
		<layer id="103" name="ReLU1" type="ReLU" version="opset1">
			<input>
				<port id="0">
					<dim>1</dim>
					<dim>32</dim>
					<dim>150</dim>
					<dim>150</dim>
				</port>
			</input>
			<output>
				<port id="1" names="Convolution1" precision="FP16">
					<dim>1</dim>
					<dim>32</dim>
					<dim>150</dim>
					<dim>150</dim>
				</port>
			</output>
		</layer>
		<layer id="104" name="Pooling1/fq_input_0" type="FakeQuantize" version="opset1">
			<data auto_broadcast="numpy" levels="256"/>
			<input>
				<port id="0">
					<dim>1</dim>
					<dim>32</dim>
					<dim>150</dim>
					<dim>150</dim>
				</port>
				<port id="1"/>
				<port id="2"/>
				<port id="3"/>
				<port id="4"/>
			</input>
			<output>
				<port id="5" precision="FP16">
					<dim>1</dim>
					<dim>32</dim>
					<dim>150</dim>
					<dim>150</dim>
				</port>
			</output>
		</layer>
		<layer id="105" name="Pooling1" type="MaxPool" version="opset1">
			<data auto_pad="explicit" kernel="3,3" pads_begin="0,0" pads_end="0,0" rounding_type="ceil" strides="2,2"/>
			<input>
				<port id="0">
					<dim>1</dim>
					<dim>32</dim>
					<dim>150</dim>
					<dim>150</dim>
				</port>
			</input>
			<output>
				<port id="1" names="Pooling1" precision="FP16">
					<dim>1</dim>
					<dim>32</dim>
					<dim>75</dim>
					<dim>75</dim>
				</port>
			</output>
		</layer>
		<layer id="106" name="1132192618/quantized31545013" type="Const" version="opset1">
			<data element_type="i8" offset="4956" shape="8,32,1,1" size="256"/>
			<output>
				<port id="0" precision="I8">
					<dim>8</dim>
					<dim>32</dim>
					<dim>1</dim>
					<dim>1</dim>
				</port>
			</output>
		</layer>
		<layer id="107" name="1132192618/quantized/to_f16" type="Convert" version="opset1">
			<data destination_type="f16"/>
			<input>
				<port id="0">
					<dim>8</dim>
					<dim>32</dim>
					<dim>1</dim>
					<dim>1</dim>
				</port>
			</input>
			<output>
				<port id="1" precision="FP16">
					<dim>8</dim>
					<dim>32</dim>
					<dim>1</dim>
					<dim>1</dim>
				</port>
			</output>
		</layer>
		<layer id="108" name="fire2/squeeze1x1/WithoutBiases/fq_weights_1/zero_point31675142" type="Const" version="opset1">
			<data element_type="f16" offset="5212" shape="8,1,1,1" size="16"/>
			<output>
				<port id="0" precision="FP16">
					<dim>8</dim>
					<dim>1</dim>
					<dim>1</dim>
					<dim>1</dim>
				</port>
			</output>
		</layer>
		<layer id="109" name="fire2/squeeze1x1/WithoutBiases/fq_weights_1/minus_zp" type="Subtract" version="opset1">
			<data auto_broadcast="numpy"/>
			<input>
				<port id="0">
					<dim>8</dim>
					<dim>32</dim>
					<dim>1</dim>
					<dim>1</dim>
				</port>
				<port id="1">
					<dim>8</dim>
					<dim>1</dim>
					<dim>1</dim>
					<dim>1</dim>
				</port>
			</input>
			<output>
				<port id="2" precision="FP16">
					<dim>8</dim>
					<dim>32</dim>
					<dim>1</dim>
					<dim>1</dim>
				</port>
			</output>
		</layer>
		<layer id="110" name="fire2/squeeze1x1/WithoutBiases/fq_weights_1/scale31625376" type="Const" version="opset1">
			<data element_type="f16" offset="5228" shape="8,1,1,1" size="16"/>
			<output>
				<port id="0" precision="FP16">
					<dim>8</dim>
					<dim>1</dim>
					<dim>1</dim>
					<dim>1</dim>
				</port>
			</output>
		</layer>
		<layer id="111" name="fire2/squeeze1x1/WithoutBiases/fq_weights_1/mulpiply_by_scale" type="Multiply" version="opset1">
			<data auto_broadcast="numpy"/>
			<input>
				<port id="0">
					<dim>8</dim>
					<dim>32</dim>
					<dim>1</dim>
					<dim>1</dim>
				</port>
				<port id="1">
					<dim>8</dim>
					<dim>1</dim>
					<dim>1</dim>
					<dim>1</dim>
				</port>
			</input>
			<output>
				<port id="2" precision="FP16">
					<dim>8</dim>
					<dim>32</dim>
					<dim>1</dim>
					<dim>1</dim>
				</port>
			</output>
		</layer>
		<layer id="112" name="fire2/squeeze1x1/WithoutBiases" type="Convolution" version="opset1">
			<data auto_pad="explicit" dilations="1,1" pads_begin="0,0" pads_end="0,0" strides="1,1"/>
			<input>
				<port id="0">
					<dim>1</dim>
					<dim>32</dim>
					<dim>75</dim>
					<dim>75</dim>
				</port>
				<port id="1">
					<dim>8</dim>
					<dim>32</dim>
					<dim>1</dim>
					<dim>1</dim>
				</port>
			</input>
			<output>
				<port id="2" precision="FP16">
					<dim>1</dim>
					<dim>8</dim>
					<dim>75</dim>
					<dim>75</dim>
				</port>
			</output>
		</layer>
		<layer id="113" name="fire2/squeeze1x1/Dims14572215175" type="Const" version="opset1">
			<data element_type="f16" offset="5244" shape="1,8,1,1" size="16"/>
			<output>
				<port id="0" precision="FP16">
					<dim>1</dim>
					<dim>8</dim>
					<dim>1</dim>
					<dim>1</dim>
				</port>
			</output>
		</layer>
		<layer id="114" name="fire2/squeeze1x1" type="Add" version="opset1">
			<data auto_broadcast="numpy"/>
			<input>
				<port id="0">
					<dim>1</dim>
					<dim>8</dim>
					<dim>75</dim>
					<dim>75</dim>
				</port>
				<port id="1">
					<dim>1</dim>
					<dim>8</dim>
					<dim>1</dim>
					<dim>1</dim>
				</port>
			</input>
			<output>
				<port id="2" names="fire2/squeeze1x1" precision="FP16">
					<dim>1</dim>
					<dim>8</dim>
					<dim>75</dim>
					<dim>75</dim>
				</port>
			</output>
		</layer>
		<layer id="115" name="fire2/relu_squeeze1x1" type="ReLU" version="opset1">
			<input>
				<port id="0">
					<dim>1</dim>
					<dim>8</dim>
					<dim>75</dim>
					<dim>75</dim>
				</port>
			</input>
			<output>
				<port id="1" names="fire2/squeeze1x1" precision="FP16">
					<dim>1</dim>
					<dim>8</dim>
					<dim>75</dim>
					<dim>75</dim>
				</port>
			</output>
		</layer>
		<layer id="116" name="fire2/expand1x1/WithoutBiases/fq_input_0" type="FakeQuantize" version="opset1">
			<data auto_broadcast="numpy" levels="256"/>
			<input>
				<port id="0">
					<dim>1</dim>
					<dim>8</dim>
					<dim>75</dim>
					<dim>75</dim>
				</port>
				<port id="1"/>
				<port id="2"/>
				<port id="3"/>
				<port id="4"/>
			</input>
			<output>
				<port id="5" precision="FP16">
					<dim>1</dim>
					<dim>8</dim>
					<dim>75</dim>
					<dim>75</dim>
				</port>
			</output>
		</layer>
		<layer id="117" name="1492242620/quantized36345226" type="Const" version="opset1">
			<data element_type="i8" offset="5260" shape="32,8,3,3" size="2304"/>
			<output>
				<port id="0" precision="I8">
					<dim>32</dim>
					<dim>8</dim>
					<dim>3</dim>
					<dim>3</dim>
				</port>
			</output>
		</layer>
		<layer id="118" name="1492242620/quantized/to_f16" type="Convert" version="opset1">
			<data destination_type="f16"/>
			<input>
				<port id="0">
					<dim>32</dim>
					<dim>8</dim>
					<dim>3</dim>
					<dim>3</dim>
				</port>
			</input>
			<output>
				<port id="1" precision="FP16">
					<dim>32</dim>
					<dim>8</dim>
					<dim>3</dim>
					<dim>3</dim>
				</port>
			</output>
		</layer>
		<layer id="119" name="fire2/expand3x3/WithoutBiases/fq_weights_1/zero_point36474977" type="Const" version="opset1">
			<data element_type="f16" offset="7564" shape="32,1,1,1" size="64"/>
			<output>
				<port id="0" precision="FP16">
					<dim>32</dim>
					<dim>1</dim>
					<dim>1</dim>
					<dim>1</dim>
				</port>
			</output>
		</layer>
		<layer id="120" name="fire2/expand3x3/WithoutBiases/fq_weights_1/minus_zp" type="Subtract" version="opset1">
			<data auto_broadcast="numpy"/>
			<input>
				<port id="0">
					<dim>32</dim>
					<dim>8</dim>
					<dim>3</dim>
					<dim>3</dim>
				</port>
				<port id="1">
					<dim>32</dim>
					<dim>1</dim>
					<dim>1</dim>
					<dim>1</dim>
				</port>
			</input>
			<output>
				<port id="2" precision="FP16">
					<dim>32</dim>
					<dim>8</dim>
					<dim>3</dim>
					<dim>3</dim>
				</port>
			</output>
		</layer>
		<layer id="121" name="fire2/expand3x3/WithoutBiases/fq_weights_1/scale36424866" type="Const" version="opset1">
			<data element_type="f16" offset="7628" shape="32,1,1,1" size="64"/>
			<output>
				<port id="0" precision="FP16">
					<dim>32</dim>
					<dim>1</dim>
					<dim>1</dim>
					<dim>1</dim>
				</port>
			</output>
		</layer>
		<layer id="122" name="fire2/expand3x3/WithoutBiases/fq_weights_1/mulpiply_by_scale" type="Multiply" version="opset1">
			<data auto_broadcast="numpy"/>
			<input>
				<port id="0">
					<dim>32</dim>
					<dim>8</dim>
					<dim>3</dim>
					<dim>3</dim>
				</port>
				<port id="1">
					<dim>32</dim>
					<dim>1</dim>
					<dim>1</dim>
					<dim>1</dim>
				</port>
			</input>
			<output>
				<port id="2" precision="FP16">
					<dim>32</dim>
					<dim>8</dim>
					<dim>3</dim>
					<dim>3</dim>
				</port>
			</output>
		</layer>
		<layer id="123" name="fire2/expand3x3/WithoutBiases" type="Convolution" version="opset1">
			<data auto_pad="explicit" dilations="1,1" pads_begin="1,1" pads_end="1,1" strides="1,1"/>
			<input>
				<port id="0">
					<dim>1</dim>
					<dim>8</dim>
					<dim>75</dim>
					<dim>75</dim>
				</port>
				<port id="1">
					<dim>32</dim>
					<dim>8</dim>
					<dim>3</dim>
					<dim>3</dim>
				</port>
			</input>
			<output>
				<port id="2" precision="FP16">
					<dim>1</dim>
					<dim>32</dim>
					<dim>75</dim>
					<dim>75</dim>
				</port>
			</output>
		</layer>
		<layer id="124" name="fire2/expand3x3/Dims15592264938" type="Const" version="opset1">
			<data element_type="f16" offset="7692" shape="1,32,1,1" size="64"/>
			<output>
				<port id="0" precision="FP16">
					<dim>1</dim>
					<dim>32</dim>
					<dim>1</dim>
					<dim>1</dim>
				</port>
			</output>
		</layer>
		<layer id="125" name="fire2/expand3x3" type="Add" version="opset1">
			<data auto_broadcast="numpy"/>
			<input>
				<port id="0">
					<dim>1</dim>
					<dim>32</dim>
					<dim>75</dim>
					<dim>75</dim>
				</port>
				<port id="1">
					<dim>1</dim>
					<dim>32</dim>
					<dim>1</dim>
					<dim>1</dim>
				</port>
			</input>
			<output>
				<port id="2" names="fire2/expand3x3" precision="FP16">
					<dim>1</dim>
					<dim>32</dim>
					<dim>75</dim>
					<dim>75</dim>
				</port>
			</output>
		</layer>
		<layer id="126" name="fire2/relu_expand3x3" type="ReLU" version="opset1">
			<input>
				<port id="0">
					<dim>1</dim>
					<dim>32</dim>
					<dim>75</dim>
					<dim>75</dim>
				</port>
			</input>
			<output>
				<port id="1" names="fire2/expand3x3" precision="FP16">
					<dim>1</dim>
					<dim>32</dim>
					<dim>75</dim>
					<dim>75</dim>
				</port>
			</output>
		</layer>
		<layer id="127" name="Concat1/fq_input_0" type="FakeQuantize" version="opset1">
			<data auto_broadcast="numpy" levels="256"/>
			<input>
				<port id="0">
					<dim>1</dim>
					<dim>32</dim>
					<dim>75</dim>
					<dim>75</dim>
				</port>
				<port id="1"/>
				<port id="2"/>
				<port id="3"/>
				<port id="4"/>
			</input>
			<output>
				<port id="5" precision="FP16">
					<dim>1</dim>
					<dim>32</dim>
					<dim>75</dim>
					<dim>75</dim>
				</port>
			</output>
		</layer>
		<layer id="128" name="176317675436" type="Const" version="opset1">
			<data element_type="f16" offset="0" shape="" size="2"/>
			<output>
				<port id="0" precision="FP16"/>
			</output>
		</layer>
		<layer id="129" name="176417685373" type="Const" version="opset1">
			<data element_type="f16" offset="7756" shape="" size="2"/>
			<output>
				<port id="0" precision="FP16"/>
			</output>
		</layer>
		<layer id="130" name="176517695202" type="Const" version="opset1">
			<data element_type="f16" offset="0" shape="" size="2"/>
			<output>
				<port id="0" precision="FP16"/>
			</output>
		</layer>
		<layer id="131" name="176617705673" type="Const" version="opset1">
			<data element_type="f16" offset="7756" shape="" size="2"/>
			<output>
				<port id="0" precision="FP16"/>
			</output>
		</layer>
		<layer id="132" name="1512292622/quantized32025139" type="Const" version="opset1">
			<data element_type="i8" offset="7758" shape="32,8,1,1" size="256"/>
			<output>
				<port id="0" precision="I8">
					<dim>32</dim>
					<dim>8</dim>
					<dim>1</dim>
					<dim>1</dim>
				</port>
			</output>
		</layer>
		<layer id="133" name="1512292622/quantized/to_f16" type="Convert" version="opset1">
			<data destination_type="f16"/>
			<input>
				<port id="0">
					<dim>32</dim>
					<dim>8</dim>
					<dim>1</dim>
					<dim>1</dim>
				</port>
			</input>
			<output>
				<port id="1" precision="FP16">
					<dim>32</dim>
					<dim>8</dim>
					<dim>1</dim>
					<dim>1</dim>
				</port>
			</output>
		</layer>
		<layer id="134" name="fire2/expand1x1/WithoutBiases/fq_weights_1/zero_point32155451" type="Const" version="opset1">
			<data element_type="f16" offset="8014" shape="32,1,1,1" size="64"/>
			<output>
				<port id="0" precision="FP16">
					<dim>32</dim>
					<dim>1</dim>
					<dim>1</dim>
					<dim>1</dim>
				</port>
			</output>
		</layer>
		<layer id="135" name="fire2/expand1x1/WithoutBiases/fq_weights_1/minus_zp" type="Subtract" version="opset1">
			<data auto_broadcast="numpy"/>
			<input>
				<port id="0">
					<dim>32</dim>
					<dim>8</dim>
					<dim>1</dim>
					<dim>1</dim>
				</port>
				<port id="1">
					<dim>32</dim>
					<dim>1</dim>
					<dim>1</dim>
					<dim>1</dim>
				</port>
			</input>
			<output>
				<port id="2" precision="FP16">
					<dim>32</dim>
					<dim>8</dim>
					<dim>1</dim>
					<dim>1</dim>
				</port>
			</output>
		</layer>
		<layer id="136" name="fire2/expand1x1/WithoutBiases/fq_weights_1/scale32105052" type="Const" version="opset1">
			<data element_type="f16" offset="8078" shape="32,1,1,1" size="64"/>
			<output>
				<port id="0" precision="FP16">
					<dim>32</dim>
					<dim>1</dim>
					<dim>1</dim>
					<dim>1</dim>
				</port>
			</output>
		</layer>
		<layer id="137" name="fire2/expand1x1/WithoutBiases/fq_weights_1/mulpiply_by_scale" type="Multiply" version="opset1">
			<data auto_broadcast="numpy"/>
			<input>
				<port id="0">
					<dim>32</dim>
					<dim>8</dim>
					<dim>1</dim>
					<dim>1</dim>
				</port>
				<port id="1">
					<dim>32</dim>
					<dim>1</dim>
					<dim>1</dim>
					<dim>1</dim>
				</port>
			</input>
			<output>
				<port id="2" precision="FP16">
					<dim>32</dim>
					<dim>8</dim>
					<dim>1</dim>
					<dim>1</dim>
				</port>
			</output>
		</layer>
		<layer id="138" name="fire2/expand1x1/WithoutBiases" type="Convolution" version="opset1">
			<data auto_pad="explicit" dilations="1,1" pads_begin="0,0" pads_end="0,0" strides="1,1"/>
			<input>
				<port id="0">
					<dim>1</dim>
					<dim>8</dim>
					<dim>75</dim>
					<dim>75</dim>
				</port>
				<port id="1">
					<dim>32</dim>
					<dim>8</dim>
					<dim>1</dim>
					<dim>1</dim>
				</port>
			</input>
			<output>
				<port id="2" precision="FP16">
					<dim>1</dim>
					<dim>32</dim>
					<dim>75</dim>
					<dim>75</dim>
				</port>
			</output>
		</layer>
		<layer id="139" name="fire2/expand1x1/Dims15652315199" type="Const" version="opset1">
			<data element_type="f16" offset="8142" shape="1,32,1,1" size="64"/>
			<output>
				<port id="0" precision="FP16">
					<dim>1</dim>
					<dim>32</dim>
					<dim>1</dim>
					<dim>1</dim>
				</port>
			</output>
		</layer>
		<layer id="140" name="fire2/expand1x1" type="Add" version="opset1">
			<data auto_broadcast="numpy"/>
			<input>
				<port id="0">
					<dim>1</dim>
					<dim>32</dim>
					<dim>75</dim>
					<dim>75</dim>
				</port>
				<port id="1">
					<dim>1</dim>
					<dim>32</dim>
					<dim>1</dim>
					<dim>1</dim>
				</port>
			</input>
			<output>
				<port id="2" names="fire2/expand1x1" precision="FP16">
					<dim>1</dim>
					<dim>32</dim>
					<dim>75</dim>
					<dim>75</dim>
				</port>
			</output>
		</layer>
		<layer id="141" name="fire2/relu_expand1x1" type="ReLU" version="opset1">
			<input>
				<port id="0">
					<dim>1</dim>
					<dim>32</dim>
					<dim>75</dim>
					<dim>75</dim>
				</port>
			</input>
			<output>
				<port id="1" names="fire2/expand1x1" precision="FP16">
					<dim>1</dim>
					<dim>32</dim>
					<dim>75</dim>
					<dim>75</dim>
				</port>
			</output>
		</layer>
		<layer id="142" name="Concat1/fq_input_1" type="FakeQuantize" version="opset1">
			<data auto_broadcast="numpy" levels="256"/>
			<input>
				<port id="0">
					<dim>1</dim>
					<dim>32</dim>
					<dim>75</dim>
					<dim>75</dim>
				</port>
				<port id="1"/>
				<port id="2"/>
				<port id="3"/>
				<port id="4"/>
			</input>
			<output>
				<port id="5" precision="FP16">
					<dim>1</dim>
					<dim>32</dim>
					<dim>75</dim>
					<dim>75</dim>
				</port>
			</output>
		</layer>
		<layer id="143" name="Concat1" type="Concat" version="opset1">
			<data axis="1"/>
			<input>
				<port id="0">
					<dim>1</dim>
					<dim>32</dim>
					<dim>75</dim>
					<dim>75</dim>
				</port>
				<port id="1">
					<dim>1</dim>
					<dim>32</dim>
					<dim>75</dim>
					<dim>75</dim>
				</port>
			</input>
			<output>
				<port id="2" names="Concat1" precision="FP16">
					<dim>1</dim>
					<dim>64</dim>
					<dim>75</dim>
					<dim>75</dim>
				</port>
			</output>
		</layer>
		<layer id="144" name="892352624/quantized29625463" type="Const" version="opset1">
			<data element_type="i8" offset="8206" shape="8,64,1,1" size="512"/>
			<output>
				<port id="0" precision="I8">
					<dim>8</dim>
					<dim>64</dim>
					<dim>1</dim>
					<dim>1</dim>
				</port>
			</output>
		</layer>
		<layer id="145" name="892352624/quantized/to_f16" type="Convert" version="opset1">
			<data destination_type="f16"/>
			<input>
				<port id="0">
					<dim>8</dim>
					<dim>64</dim>
					<dim>1</dim>
					<dim>1</dim>
				</port>
			</input>
			<output>
				<port id="1" precision="FP16">
					<dim>8</dim>
					<dim>64</dim>
					<dim>1</dim>
					<dim>1</dim>
				</port>
			</output>
		</layer>
		<layer id="146" name="fire3/squeeze1x1/WithoutBiases/fq_weights_1/zero_point29755088" type="Const" version="opset1">
			<data element_type="f16" offset="8718" shape="8,1,1,1" size="16"/>
			<output>
				<port id="0" precision="FP16">
					<dim>8</dim>
					<dim>1</dim>
					<dim>1</dim>
					<dim>1</dim>
				</port>
			</output>
		</layer>
		<layer id="147" name="fire3/squeeze1x1/WithoutBiases/fq_weights_1/minus_zp" type="Subtract" version="opset1">
			<data auto_broadcast="numpy"/>
			<input>
				<port id="0">
					<dim>8</dim>
					<dim>64</dim>
					<dim>1</dim>
					<dim>1</dim>
				</port>
				<port id="1">
					<dim>8</dim>
					<dim>1</dim>
					<dim>1</dim>
					<dim>1</dim>
				</port>
			</input>
			<output>
				<port id="2" precision="FP16">
					<dim>8</dim>
					<dim>64</dim>
					<dim>1</dim>
					<dim>1</dim>
				</port>
			</output>
		</layer>
		<layer id="148" name="fire3/squeeze1x1/WithoutBiases/fq_weights_1/scale29705655" type="Const" version="opset1">
			<data element_type="f16" offset="8734" shape="8,1,1,1" size="16"/>
			<output>
				<port id="0" precision="FP16">
					<dim>8</dim>
					<dim>1</dim>
					<dim>1</dim>
					<dim>1</dim>
				</port>
			</output>
		</layer>
		<layer id="149" name="fire3/squeeze1x1/WithoutBiases/fq_weights_1/mulpiply_by_scale" type="Multiply" version="opset1">
			<data auto_broadcast="numpy"/>
			<input>
				<port id="0">
					<dim>8</dim>
					<dim>64</dim>
					<dim>1</dim>
					<dim>1</dim>
				</port>
				<port id="1">
					<dim>8</dim>
					<dim>1</dim>
					<dim>1</dim>
					<dim>1</dim>
				</port>
			</input>
			<output>
				<port id="2" precision="FP16">
					<dim>8</dim>
					<dim>64</dim>
					<dim>1</dim>
					<dim>1</dim>
				</port>
			</output>
		</layer>
		<layer id="150" name="fire3/squeeze1x1/WithoutBiases" type="Convolution" version="opset1">
			<data auto_pad="explicit" dilations="1,1" pads_begin="0,0" pads_end="0,0" strides="1,1"/>
			<input>
				<port id="0">
					<dim>1</dim>
					<dim>64</dim>
					<dim>75</dim>
					<dim>75</dim>
				</port>
				<port id="1">
					<dim>8</dim>
					<dim>64</dim>
					<dim>1</dim>
					<dim>1</dim>
				</port>
			</input>
			<output>
				<port id="2" precision="FP16">
					<dim>1</dim>
					<dim>8</dim>
					<dim>75</dim>
					<dim>75</dim>
				</port>
			</output>
		</layer>
		<layer id="151" name="fire3/squeeze1x1/Dims13852375643" type="Const" version="opset1">
			<data element_type="f16" offset="8750" shape="1,8,1,1" size="16"/>
			<output>
				<port id="0" precision="FP16">
					<dim>1</dim>
					<dim>8</dim>
					<dim>1</dim>
					<dim>1</dim>
				</port>
			</output>
		</layer>
		<layer id="152" name="fire3/squeeze1x1" type="Add" version="opset1">
			<data auto_broadcast="numpy"/>
			<input>
				<port id="0">
					<dim>1</dim>
					<dim>8</dim>
					<dim>75</dim>
					<dim>75</dim>
				</port>
				<port id="1">
					<dim>1</dim>
					<dim>8</dim>
					<dim>1</dim>
					<dim>1</dim>
				</port>
			</input>
			<output>
				<port id="2" names="fire3/squeeze1x1" precision="FP16">
					<dim>1</dim>
					<dim>8</dim>
					<dim>75</dim>
					<dim>75</dim>
				</port>
			</output>
		</layer>
		<layer id="153" name="fire3/relu_squeeze1x1" type="ReLU" version="opset1">
			<input>
				<port id="0">
					<dim>1</dim>
					<dim>8</dim>
					<dim>75</dim>
					<dim>75</dim>
				</port>
			</input>
			<output>
				<port id="1" names="fire3/squeeze1x1" precision="FP16">
					<dim>1</dim>
					<dim>8</dim>
					<dim>75</dim>
					<dim>75</dim>
				</port>
			</output>
		</layer>
		<layer id="154" name="fire3/expand1x1/WithoutBiases/fq_input_0" type="FakeQuantize" version="opset1">
			<data auto_broadcast="numpy" levels="256"/>
			<input>
				<port id="0">
					<dim>1</dim>
					<dim>8</dim>
					<dim>75</dim>
					<dim>75</dim>
				</port>
				<port id="1"/>
				<port id="2"/>
				<port id="3"/>
				<port id="4"/>
			</input>
			<output>
				<port id="5" precision="FP16">
					<dim>1</dim>
					<dim>8</dim>
					<dim>75</dim>
					<dim>75</dim>
				</port>
			</output>
		</layer>
		<layer id="155" name="1072402626/quantized35385328" type="Const" version="opset1">
			<data element_type="i8" offset="8766" shape="32,8,3,3" size="2304"/>
			<output>
				<port id="0" precision="I8">
					<dim>32</dim>
					<dim>8</dim>
					<dim>3</dim>
					<dim>3</dim>
				</port>
			</output>
		</layer>
		<layer id="156" name="1072402626/quantized/to_f16" type="Convert" version="opset1">
			<data destination_type="f16"/>
			<input>
				<port id="0">
					<dim>32</dim>
					<dim>8</dim>
					<dim>3</dim>
					<dim>3</dim>
				</port>
			</input>
			<output>
				<port id="1" precision="FP16">
					<dim>32</dim>
					<dim>8</dim>
					<dim>3</dim>
					<dim>3</dim>
				</port>
			</output>
		</layer>
		<layer id="157" name="fire3/expand3x3/WithoutBiases/fq_weights_1/zero_point35515094" type="Const" version="opset1">
			<data element_type="f16" offset="11070" shape="32,1,1,1" size="64"/>
			<output>
				<port id="0" precision="FP16">
					<dim>32</dim>
					<dim>1</dim>
					<dim>1</dim>
					<dim>1</dim>
				</port>
			</output>
		</layer>
		<layer id="158" name="fire3/expand3x3/WithoutBiases/fq_weights_1/minus_zp" type="Subtract" version="opset1">
			<data auto_broadcast="numpy"/>
			<input>
				<port id="0">
					<dim>32</dim>
					<dim>8</dim>
					<dim>3</dim>
					<dim>3</dim>
				</port>
				<port id="1">
					<dim>32</dim>
					<dim>1</dim>
					<dim>1</dim>
					<dim>1</dim>
				</port>
			</input>
			<output>
				<port id="2" precision="FP16">
					<dim>32</dim>
					<dim>8</dim>
					<dim>3</dim>
					<dim>3</dim>
				</port>
			</output>
		</layer>
		<layer id="159" name="fire3/expand3x3/WithoutBiases/fq_weights_1/scale35465364" type="Const" version="opset1">
			<data element_type="f16" offset="11134" shape="32,1,1,1" size="64"/>
			<output>
				<port id="0" precision="FP16">
					<dim>32</dim>
					<dim>1</dim>
					<dim>1</dim>
					<dim>1</dim>
				</port>
			</output>
		</layer>
		<layer id="160" name="fire3/expand3x3/WithoutBiases/fq_weights_1/mulpiply_by_scale" type="Multiply" version="opset1">
			<data auto_broadcast="numpy"/>
			<input>
				<port id="0">
					<dim>32</dim>
					<dim>8</dim>
					<dim>3</dim>
					<dim>3</dim>
				</port>
				<port id="1">
					<dim>32</dim>
					<dim>1</dim>
					<dim>1</dim>
					<dim>1</dim>
				</port>
			</input>
			<output>
				<port id="2" precision="FP16">
					<dim>32</dim>
					<dim>8</dim>
					<dim>3</dim>
					<dim>3</dim>
				</port>
			</output>
		</layer>
		<layer id="161" name="fire3/expand3x3/WithoutBiases" type="Convolution" version="opset1">
			<data auto_pad="explicit" dilations="1,1" pads_begin="1,1" pads_end="1,1" strides="1,1"/>
			<input>
				<port id="0">
					<dim>1</dim>
					<dim>8</dim>
					<dim>75</dim>
					<dim>75</dim>
				</port>
				<port id="1">
					<dim>32</dim>
					<dim>8</dim>
					<dim>3</dim>
					<dim>3</dim>
				</port>
			</input>
			<output>
				<port id="2" precision="FP16">
					<dim>1</dim>
					<dim>32</dim>
					<dim>75</dim>
					<dim>75</dim>
				</port>
			</output>
		</layer>
		<layer id="162" name="fire3/expand3x3/Dims14392425664" type="Const" version="opset1">
			<data element_type="f16" offset="11198" shape="1,32,1,1" size="64"/>
			<output>
				<port id="0" precision="FP16">
					<dim>1</dim>
					<dim>32</dim>
					<dim>1</dim>
					<dim>1</dim>
				</port>
			</output>
		</layer>
		<layer id="163" name="fire3/expand3x3" type="Add" version="opset1">
			<data auto_broadcast="numpy"/>
			<input>
				<port id="0">
					<dim>1</dim>
					<dim>32</dim>
					<dim>75</dim>
					<dim>75</dim>
				</port>
				<port id="1">
					<dim>1</dim>
					<dim>32</dim>
					<dim>1</dim>
					<dim>1</dim>
				</port>
			</input>
			<output>
				<port id="2" names="fire3/expand3x3" precision="FP16">
					<dim>1</dim>
					<dim>32</dim>
					<dim>75</dim>
					<dim>75</dim>
				</port>
			</output>
		</layer>
		<layer id="164" name="fire3/relu_expand3x3" type="ReLU" version="opset1">
			<input>
				<port id="0">
					<dim>1</dim>
					<dim>32</dim>
					<dim>75</dim>
					<dim>75</dim>
				</port>
			</input>
			<output>
				<port id="1" names="fire3/expand3x3" precision="FP16">
					<dim>1</dim>
					<dim>32</dim>
					<dim>75</dim>
					<dim>75</dim>
				</port>
			</output>
		</layer>
		<layer id="165" name="Concat2/fq_input_0" type="FakeQuantize" version="opset1">
			<data auto_broadcast="numpy" levels="256"/>
			<input>
				<port id="0">
					<dim>1</dim>
					<dim>32</dim>
					<dim>75</dim>
					<dim>75</dim>
				</port>
				<port id="1"/>
				<port id="2"/>
				<port id="3"/>
				<port id="4"/>
			</input>
			<output>
				<port id="5" precision="FP16">
					<dim>1</dim>
					<dim>32</dim>
					<dim>75</dim>
					<dim>75</dim>
				</port>
			</output>
		</layer>
		<layer id="166" name="178317875631" type="Const" version="opset1">
			<data element_type="f16" offset="0" shape="" size="2"/>
			<output>
				<port id="0" precision="FP16"/>
			</output>
		</layer>
		<layer id="167" name="178417885601" type="Const" version="opset1">
			<data element_type="f16" offset="11262" shape="" size="2"/>
			<output>
				<port id="0" precision="FP16"/>
			</output>
		</layer>
		<layer id="168" name="178517894896" type="Const" version="opset1">
			<data element_type="f16" offset="0" shape="" size="2"/>
			<output>
				<port id="0" precision="FP16"/>
			</output>
		</layer>
		<layer id="169" name="178617905616" type="Const" version="opset1">
			<data element_type="f16" offset="11262" shape="" size="2"/>
			<output>
				<port id="0" precision="FP16"/>
			</output>
		</layer>
		<layer id="170" name="1312452628/quantized33225610" type="Const" version="opset1">
			<data element_type="i8" offset="11264" shape="32,8,1,1" size="256"/>
			<output>
				<port id="0" precision="I8">
					<dim>32</dim>
					<dim>8</dim>
					<dim>1</dim>
					<dim>1</dim>
				</port>
			</output>
		</layer>
		<layer id="171" name="1312452628/quantized/to_f16" type="Convert" version="opset1">
			<data destination_type="f16"/>
			<input>
				<port id="0">
					<dim>32</dim>
					<dim>8</dim>
					<dim>1</dim>
					<dim>1</dim>
				</port>
			</input>
			<output>
				<port id="1" precision="FP16">
					<dim>32</dim>
					<dim>8</dim>
					<dim>1</dim>
					<dim>1</dim>
				</port>
			</output>
		</layer>
		<layer id="172" name="fire3/expand1x1/WithoutBiases/fq_weights_1/zero_point33355313" type="Const" version="opset1">
			<data element_type="f16" offset="11520" shape="32,1,1,1" size="64"/>
			<output>
				<port id="0" precision="FP16">
					<dim>32</dim>
					<dim>1</dim>
					<dim>1</dim>
					<dim>1</dim>
				</port>
			</output>
		</layer>
		<layer id="173" name="fire3/expand1x1/WithoutBiases/fq_weights_1/minus_zp" type="Subtract" version="opset1">
			<data auto_broadcast="numpy"/>
			<input>
				<port id="0">
					<dim>32</dim>
					<dim>8</dim>
					<dim>1</dim>
					<dim>1</dim>
				</port>
				<port id="1">
					<dim>32</dim>
					<dim>1</dim>
					<dim>1</dim>
					<dim>1</dim>
				</port>
			</input>
			<output>
				<port id="2" precision="FP16">
					<dim>32</dim>
					<dim>8</dim>
					<dim>1</dim>
					<dim>1</dim>
				</port>
			</output>
		</layer>
		<layer id="174" name="fire3/expand1x1/WithoutBiases/fq_weights_1/scale33305232" type="Const" version="opset1">
			<data element_type="f16" offset="11584" shape="32,1,1,1" size="64"/>
			<output>
				<port id="0" precision="FP16">
					<dim>32</dim>
					<dim>1</dim>
					<dim>1</dim>
					<dim>1</dim>
				</port>
			</output>
		</layer>
		<layer id="175" name="fire3/expand1x1/WithoutBiases/fq_weights_1/mulpiply_by_scale" type="Multiply" version="opset1">
			<data auto_broadcast="numpy"/>
			<input>
				<port id="0">
					<dim>32</dim>
					<dim>8</dim>
					<dim>1</dim>
					<dim>1</dim>
				</port>
				<port id="1">
					<dim>32</dim>
					<dim>1</dim>
					<dim>1</dim>
					<dim>1</dim>
				</port>
			</input>
			<output>
				<port id="2" precision="FP16">
					<dim>32</dim>
					<dim>8</dim>
					<dim>1</dim>
					<dim>1</dim>
				</port>
			</output>
		</layer>
		<layer id="176" name="fire3/expand1x1/WithoutBiases" type="Convolution" version="opset1">
			<data auto_pad="explicit" dilations="1,1" pads_begin="0,0" pads_end="0,0" strides="1,1"/>
			<input>
				<port id="0">
					<dim>1</dim>
					<dim>8</dim>
					<dim>75</dim>
					<dim>75</dim>
				</port>
				<port id="1">
					<dim>32</dim>
					<dim>8</dim>
					<dim>1</dim>
					<dim>1</dim>
				</port>
			</input>
			<output>
				<port id="2" precision="FP16">
					<dim>1</dim>
					<dim>32</dim>
					<dim>75</dim>
					<dim>75</dim>
				</port>
			</output>
		</layer>
		<layer id="177" name="fire3/expand1x1/Dims15112475607" type="Const" version="opset1">
			<data element_type="f16" offset="11648" shape="1,32,1,1" size="64"/>
			<output>
				<port id="0" precision="FP16">
					<dim>1</dim>
					<dim>32</dim>
					<dim>1</dim>
					<dim>1</dim>
				</port>
			</output>
		</layer>
		<layer id="178" name="fire3/expand1x1" type="Add" version="opset1">
			<data auto_broadcast="numpy"/>
			<input>
				<port id="0">
					<dim>1</dim>
					<dim>32</dim>
					<dim>75</dim>
					<dim>75</dim>
				</port>
				<port id="1">
					<dim>1</dim>
					<dim>32</dim>
					<dim>1</dim>
					<dim>1</dim>
				</port>
			</input>
			<output>
				<port id="2" names="fire3/expand1x1" precision="FP16">
					<dim>1</dim>
					<dim>32</dim>
					<dim>75</dim>
					<dim>75</dim>
				</port>
			</output>
		</layer>
		<layer id="179" name="fire3/relu_expand1x1" type="ReLU" version="opset1">
			<input>
				<port id="0">
					<dim>1</dim>
					<dim>32</dim>
					<dim>75</dim>
					<dim>75</dim>
				</port>
			</input>
			<output>
				<port id="1" names="fire3/expand1x1" precision="FP16">
					<dim>1</dim>
					<dim>32</dim>
					<dim>75</dim>
					<dim>75</dim>
				</port>
			</output>
		</layer>
		<layer id="180" name="Concat2/fq_input_1" type="FakeQuantize" version="opset1">
			<data auto_broadcast="numpy" levels="256"/>
			<input>
				<port id="0">
					<dim>1</dim>
					<dim>32</dim>
					<dim>75</dim>
					<dim>75</dim>
				</port>
				<port id="1"/>
				<port id="2"/>
				<port id="3"/>
				<port id="4"/>
			</input>
			<output>
				<port id="5" precision="FP16">
					<dim>1</dim>
					<dim>32</dim>
					<dim>75</dim>
					<dim>75</dim>
				</port>
			</output>
		</layer>
		<layer id="181" name="Concat2" type="Concat" version="opset1">
			<data axis="1"/>
			<input>
				<port id="0">
					<dim>1</dim>
					<dim>32</dim>
					<dim>75</dim>
					<dim>75</dim>
				</port>
				<port id="1">
					<dim>1</dim>
					<dim>32</dim>
					<dim>75</dim>
					<dim>75</dim>
				</port>
			</input>
			<output>
				<port id="2" names="Concat2" precision="FP16">
					<dim>1</dim>
					<dim>64</dim>
					<dim>75</dim>
					<dim>75</dim>
				</port>
			</output>
		</layer>
		<layer id="182" name="1292512630/quantized32985097" type="Const" version="opset1">
			<data element_type="i8" offset="11712" shape="16,64,1,1" size="1024"/>
			<output>
				<port id="0" precision="I8">
					<dim>16</dim>
					<dim>64</dim>
					<dim>1</dim>
					<dim>1</dim>
				</port>
			</output>
		</layer>
		<layer id="183" name="1292512630/quantized/to_f16" type="Convert" version="opset1">
			<data destination_type="f16"/>
			<input>
				<port id="0">
					<dim>16</dim>
					<dim>64</dim>
					<dim>1</dim>
					<dim>1</dim>
				</port>
			</input>
			<output>
				<port id="1" precision="FP16">
					<dim>16</dim>
					<dim>64</dim>
					<dim>1</dim>
					<dim>1</dim>
				</port>
			</output>
		</layer>
		<layer id="184" name="fire4/squeeze1x1/WithoutBiases/fq_weights_1/zero_point33114908" type="Const" version="opset1">
			<data element_type="f16" offset="12736" shape="16,1,1,1" size="32"/>
			<output>
				<port id="0" precision="FP16">
					<dim>16</dim>
					<dim>1</dim>
					<dim>1</dim>
					<dim>1</dim>
				</port>
			</output>
		</layer>
		<layer id="185" name="fire4/squeeze1x1/WithoutBiases/fq_weights_1/minus_zp" type="Subtract" version="opset1">
			<data auto_broadcast="numpy"/>
			<input>
				<port id="0">
					<dim>16</dim>
					<dim>64</dim>
					<dim>1</dim>
					<dim>1</dim>
				</port>
				<port id="1">
					<dim>16</dim>
					<dim>1</dim>
					<dim>1</dim>
					<dim>1</dim>
				</port>
			</input>
			<output>
				<port id="2" precision="FP16">
					<dim>16</dim>
					<dim>64</dim>
					<dim>1</dim>
					<dim>1</dim>
				</port>
			</output>
		</layer>
		<layer id="186" name="fire4/squeeze1x1/WithoutBiases/fq_weights_1/scale33065031" type="Const" version="opset1">
			<data element_type="f16" offset="12768" shape="16,1,1,1" size="32"/>
			<output>
				<port id="0" precision="FP16">
					<dim>16</dim>
					<dim>1</dim>
					<dim>1</dim>
					<dim>1</dim>
				</port>
			</output>
		</layer>
		<layer id="187" name="fire4/squeeze1x1/WithoutBiases/fq_weights_1/mulpiply_by_scale" type="Multiply" version="opset1">
			<data auto_broadcast="numpy"/>
			<input>
				<port id="0">
					<dim>16</dim>
					<dim>64</dim>
					<dim>1</dim>
					<dim>1</dim>
				</port>
				<port id="1">
					<dim>16</dim>
					<dim>1</dim>
					<dim>1</dim>
					<dim>1</dim>
				</port>
			</input>
			<output>
				<port id="2" precision="FP16">
					<dim>16</dim>
					<dim>64</dim>
					<dim>1</dim>
					<dim>1</dim>
				</port>
			</output>
		</layer>
		<layer id="188" name="fire4/squeeze1x1/WithoutBiases" type="Convolution" version="opset1">
			<data auto_pad="explicit" dilations="1,1" pads_begin="0,0" pads_end="0,0" strides="1,1"/>
			<input>
				<port id="0">
					<dim>1</dim>
					<dim>64</dim>
					<dim>75</dim>
					<dim>75</dim>
				</port>
				<port id="1">
					<dim>16</dim>
					<dim>64</dim>
					<dim>1</dim>
					<dim>1</dim>
				</port>
			</input>
			<output>
				<port id="2" precision="FP16">
					<dim>1</dim>
					<dim>16</dim>
					<dim>75</dim>
					<dim>75</dim>
				</port>
			</output>
		</layer>
		<layer id="189" name="fire4/squeeze1x1/Dims15052535523" type="Const" version="opset1">
			<data element_type="f16" offset="12800" shape="1,16,1,1" size="32"/>
			<output>
				<port id="0" precision="FP16">
					<dim>1</dim>
					<dim>16</dim>
					<dim>1</dim>
					<dim>1</dim>
				</port>
			</output>
		</layer>
		<layer id="190" name="fire4/squeeze1x1" type="Add" version="opset1">
			<data auto_broadcast="numpy"/>
			<input>
				<port id="0">
					<dim>1</dim>
					<dim>16</dim>
					<dim>75</dim>
					<dim>75</dim>
				</port>
				<port id="1">
					<dim>1</dim>
					<dim>16</dim>
					<dim>1</dim>
					<dim>1</dim>
				</port>
			</input>
			<output>
				<port id="2" names="fire4/squeeze1x1" precision="FP16">
					<dim>1</dim>
					<dim>16</dim>
					<dim>75</dim>
					<dim>75</dim>
				</port>
			</output>
		</layer>
		<layer id="191" name="fire4/relu_squeeze1x1" type="ReLU" version="opset1">
			<input>
				<port id="0">
					<dim>1</dim>
					<dim>16</dim>
					<dim>75</dim>
					<dim>75</dim>
				</port>
			</input>
			<output>
				<port id="1" names="fire4/squeeze1x1" precision="FP16">
					<dim>1</dim>
					<dim>16</dim>
					<dim>75</dim>
					<dim>75</dim>
				</port>
			</output>
		</layer>
		<layer id="192" name="fire4/expand1x1/WithoutBiases/fq_input_0" type="FakeQuantize" version="opset1">
			<data auto_broadcast="numpy" levels="256"/>
			<input>
				<port id="0">
					<dim>1</dim>
					<dim>16</dim>
					<dim>75</dim>
					<dim>75</dim>
				</port>
				<port id="1"/>
				<port id="2"/>
				<port id="3"/>
				<port id="4"/>
			</input>
			<output>
				<port id="5" precision="FP16">
					<dim>1</dim>
					<dim>16</dim>
					<dim>75</dim>
					<dim>75</dim>
				</port>
			</output>
		</layer>
		<layer id="193" name="972562632/quantized35625022" type="Const" version="opset1">
			<data element_type="i8" offset="12832" shape="64,16,3,3" size="9216"/>
			<output>
				<port id="0" precision="I8">
					<dim>64</dim>
					<dim>16</dim>
					<dim>3</dim>
					<dim>3</dim>
				</port>
			</output>
		</layer>
		<layer id="194" name="972562632/quantized/to_f16" type="Convert" version="opset1">
			<data destination_type="f16"/>
			<input>
				<port id="0">
					<dim>64</dim>
					<dim>16</dim>
					<dim>3</dim>
					<dim>3</dim>
				</port>
			</input>
			<output>
				<port id="1" precision="FP16">
					<dim>64</dim>
					<dim>16</dim>
					<dim>3</dim>
					<dim>3</dim>
				</port>
			</output>
		</layer>
		<layer id="195" name="fire4/expand3x3/WithoutBiases/fq_weights_1/zero_point35755028" type="Const" version="opset1">
			<data element_type="f16" offset="22048" shape="64,1,1,1" size="128"/>
			<output>
				<port id="0" precision="FP16">
					<dim>64</dim>
					<dim>1</dim>
					<dim>1</dim>
					<dim>1</dim>
				</port>
			</output>
		</layer>
		<layer id="196" name="fire4/expand3x3/WithoutBiases/fq_weights_1/minus_zp" type="Subtract" version="opset1">
			<data auto_broadcast="numpy"/>
			<input>
				<port id="0">
					<dim>64</dim>
					<dim>16</dim>
					<dim>3</dim>
					<dim>3</dim>
				</port>
				<port id="1">
					<dim>64</dim>
					<dim>1</dim>
					<dim>1</dim>
					<dim>1</dim>
				</port>
			</input>
			<output>
				<port id="2" precision="FP16">
					<dim>64</dim>
					<dim>16</dim>
					<dim>3</dim>
					<dim>3</dim>
				</port>
			</output>
		</layer>
		<layer id="197" name="fire4/expand3x3/WithoutBiases/fq_weights_1/scale35705439" type="Const" version="opset1">
			<data element_type="f16" offset="22176" shape="64,1,1,1" size="128"/>
			<output>
				<port id="0" precision="FP16">
					<dim>64</dim>
					<dim>1</dim>
					<dim>1</dim>
					<dim>1</dim>
				</port>
			</output>
		</layer>
		<layer id="198" name="fire4/expand3x3/WithoutBiases/fq_weights_1/mulpiply_by_scale" type="Multiply" version="opset1">
			<data auto_broadcast="numpy"/>
			<input>
				<port id="0">
					<dim>64</dim>
					<dim>16</dim>
					<dim>3</dim>
					<dim>3</dim>
				</port>
				<port id="1">
					<dim>64</dim>
					<dim>1</dim>
					<dim>1</dim>
					<dim>1</dim>
				</port>
			</input>
			<output>
				<port id="2" precision="FP16">
					<dim>64</dim>
					<dim>16</dim>
					<dim>3</dim>
					<dim>3</dim>
				</port>
			</output>
		</layer>
		<layer id="199" name="fire4/expand3x3/WithoutBiases" type="Convolution" version="opset1">
			<data auto_pad="explicit" dilations="1,1" pads_begin="1,1" pads_end="1,1" strides="1,1"/>
			<input>
				<port id="0">
					<dim>1</dim>
					<dim>16</dim>
					<dim>75</dim>
					<dim>75</dim>
				</port>
				<port id="1">
					<dim>64</dim>
					<dim>16</dim>
					<dim>3</dim>
					<dim>3</dim>
				</port>
			</input>
			<output>
				<port id="2" precision="FP16">
					<dim>1</dim>
					<dim>64</dim>
					<dim>75</dim>
					<dim>75</dim>
				</port>
			</output>
		</layer>
		<layer id="200" name="fire4/expand3x3/Dims14092584989" type="Const" version="opset1">
			<data element_type="f16" offset="22304" shape="1,64,1,1" size="128"/>
			<output>
				<port id="0" precision="FP16">
					<dim>1</dim>
					<dim>64</dim>
					<dim>1</dim>
					<dim>1</dim>
				</port>
			</output>
		</layer>
		<layer id="201" name="fire4/expand3x3" type="Add" version="opset1">
			<data auto_broadcast="numpy"/>
			<input>
				<port id="0">
					<dim>1</dim>
					<dim>64</dim>
					<dim>75</dim>
					<dim>75</dim>
				</port>
				<port id="1">
					<dim>1</dim>
					<dim>64</dim>
					<dim>1</dim>
					<dim>1</dim>
				</port>
			</input>
			<output>
				<port id="2" names="fire4/expand3x3" precision="FP16">
					<dim>1</dim>
					<dim>64</dim>
					<dim>75</dim>
					<dim>75</dim>
				</port>
			</output>
		</layer>
		<layer id="202" name="fire4/relu_expand3x3" type="ReLU" version="opset1">
			<input>
				<port id="0">
					<dim>1</dim>
					<dim>64</dim>
					<dim>75</dim>
					<dim>75</dim>
				</port>
			</input>
			<output>
				<port id="1" names="fire4/expand3x3" precision="FP16">
					<dim>1</dim>
					<dim>64</dim>
					<dim>75</dim>
					<dim>75</dim>
				</port>
			</output>
		</layer>
		<layer id="203" name="Concat3/fq_input_0" type="FakeQuantize" version="opset1">
			<data auto_broadcast="numpy" levels="256"/>
			<input>
				<port id="0">
					<dim>1</dim>
					<dim>64</dim>
					<dim>75</dim>
					<dim>75</dim>
				</port>
				<port id="1"/>
				<port id="2"/>
				<port id="3"/>
				<port id="4"/>
			</input>
			<output>
				<port id="5" precision="FP16">
					<dim>1</dim>
					<dim>64</dim>
					<dim>75</dim>
					<dim>75</dim>
				</port>
			</output>
		</layer>
		<layer id="204" name="180318075004" type="Const" version="opset1">
			<data element_type="f16" offset="0" shape="" size="2"/>
			<output>
				<port id="0" precision="FP16"/>
			</output>
		</layer>
		<layer id="205" name="180418085478" type="Const" version="opset1">
			<data element_type="f16" offset="22432" shape="" size="2"/>
			<output>
				<port id="0" precision="FP16"/>
			</output>
		</layer>
		<layer id="206" name="180518095247" type="Const" version="opset1">
			<data element_type="f16" offset="0" shape="" size="2"/>
			<output>
				<port id="0" precision="FP16"/>
			</output>
		</layer>
		<layer id="207" name="180618105634" type="Const" version="opset1">
			<data element_type="f16" offset="22432" shape="" size="2"/>
			<output>
				<port id="0" precision="FP16"/>
			</output>
		</layer>
		<layer id="208" name="1172612634/quantized30585619" type="Const" version="opset1">
			<data element_type="i8" offset="22434" shape="64,16,1,1" size="1024"/>
			<output>
				<port id="0" precision="I8">
					<dim>64</dim>
					<dim>16</dim>
					<dim>1</dim>
					<dim>1</dim>
				</port>
			</output>
		</layer>
		<layer id="209" name="1172612634/quantized/to_f16" type="Convert" version="opset1">
			<data destination_type="f16"/>
			<input>
				<port id="0">
					<dim>64</dim>
					<dim>16</dim>
					<dim>1</dim>
					<dim>1</dim>
				</port>
			</input>
			<output>
				<port id="1" precision="FP16">
					<dim>64</dim>
					<dim>16</dim>
					<dim>1</dim>
					<dim>1</dim>
				</port>
			</output>
		</layer>
		<layer id="210" name="fire4/expand1x1/WithoutBiases/fq_weights_1/zero_point30715349" type="Const" version="opset1">
			<data element_type="f16" offset="23458" shape="64,1,1,1" size="128"/>
			<output>
				<port id="0" precision="FP16">
					<dim>64</dim>
					<dim>1</dim>
					<dim>1</dim>
					<dim>1</dim>
				</port>
			</output>
		</layer>
		<layer id="211" name="fire4/expand1x1/WithoutBiases/fq_weights_1/minus_zp" type="Subtract" version="opset1">
			<data auto_broadcast="numpy"/>
			<input>
				<port id="0">
					<dim>64</dim>
					<dim>16</dim>
					<dim>1</dim>
					<dim>1</dim>
				</port>
				<port id="1">
					<dim>64</dim>
					<dim>1</dim>
					<dim>1</dim>
					<dim>1</dim>
				</port>
			</input>
			<output>
				<port id="2" precision="FP16">
					<dim>64</dim>
					<dim>16</dim>
					<dim>1</dim>
					<dim>1</dim>
				</port>
			</output>
		</layer>
		<layer id="212" name="fire4/expand1x1/WithoutBiases/fq_weights_1/scale30665685" type="Const" version="opset1">
			<data element_type="f16" offset="23586" shape="64,1,1,1" size="128"/>
			<output>
				<port id="0" precision="FP16">
					<dim>64</dim>
					<dim>1</dim>
					<dim>1</dim>
					<dim>1</dim>
				</port>
			</output>
		</layer>
		<layer id="213" name="fire4/expand1x1/WithoutBiases/fq_weights_1/mulpiply_by_scale" type="Multiply" version="opset1">
			<data auto_broadcast="numpy"/>
			<input>
				<port id="0">
					<dim>64</dim>
					<dim>16</dim>
					<dim>1</dim>
					<dim>1</dim>
				</port>
				<port id="1">
					<dim>64</dim>
					<dim>1</dim>
					<dim>1</dim>
					<dim>1</dim>
				</port>
			</input>
			<output>
				<port id="2" precision="FP16">
					<dim>64</dim>
					<dim>16</dim>
					<dim>1</dim>
					<dim>1</dim>
				</port>
			</output>
		</layer>
		<layer id="214" name="fire4/expand1x1/WithoutBiases" type="Convolution" version="opset1">
			<data auto_pad="explicit" dilations="1,1" pads_begin="0,0" pads_end="0,0" strides="1,1"/>
			<input>
				<port id="0">
					<dim>1</dim>
					<dim>16</dim>
					<dim>75</dim>
					<dim>75</dim>
				</port>
				<port id="1">
					<dim>64</dim>
					<dim>16</dim>
					<dim>1</dim>
					<dim>1</dim>
				</port>
			</input>
			<output>
				<port id="2" precision="FP16">
					<dim>1</dim>
					<dim>64</dim>
					<dim>75</dim>
					<dim>75</dim>
				</port>
			</output>
		</layer>
		<layer id="215" name="fire4/expand1x1/Dims14692635157" type="Const" version="opset1">
			<data element_type="f16" offset="23714" shape="1,64,1,1" size="128"/>
			<output>
				<port id="0" precision="FP16">
					<dim>1</dim>
					<dim>64</dim>
					<dim>1</dim>
					<dim>1</dim>
				</port>
			</output>
		</layer>
		<layer id="216" name="fire4/expand1x1" type="Add" version="opset1">
			<data auto_broadcast="numpy"/>
			<input>
				<port id="0">
					<dim>1</dim>
					<dim>64</dim>
					<dim>75</dim>
					<dim>75</dim>
				</port>
				<port id="1">
					<dim>1</dim>
					<dim>64</dim>
					<dim>1</dim>
					<dim>1</dim>
				</port>
			</input>
			<output>
				<port id="2" names="fire4/expand1x1" precision="FP16">
					<dim>1</dim>
					<dim>64</dim>
					<dim>75</dim>
					<dim>75</dim>
				</port>
			</output>
		</layer>
		<layer id="217" name="fire4/relu_expand1x1" type="ReLU" version="opset1">
			<input>
				<port id="0">
					<dim>1</dim>
					<dim>64</dim>
					<dim>75</dim>
					<dim>75</dim>
				</port>
			</input>
			<output>
				<port id="1" names="fire4/expand1x1" precision="FP16">
					<dim>1</dim>
					<dim>64</dim>
					<dim>75</dim>
					<dim>75</dim>
				</port>
			</output>
		</layer>
		<layer id="218" name="Concat3/fq_input_1" type="FakeQuantize" version="opset1">
			<data auto_broadcast="numpy" levels="256"/>
			<input>
				<port id="0">
					<dim>1</dim>
					<dim>64</dim>
					<dim>75</dim>
					<dim>75</dim>
				</port>
				<port id="1"/>
				<port id="2"/>
				<port id="3"/>
				<port id="4"/>
			</input>
			<output>
				<port id="5" precision="FP16">
					<dim>1</dim>
					<dim>64</dim>
					<dim>75</dim>
					<dim>75</dim>
				</port>
			</output>
		</layer>
		<layer id="219" name="Concat3" type="Concat" version="opset1">
			<data axis="1"/>
			<input>
				<port id="0">
					<dim>1</dim>
					<dim>64</dim>
					<dim>75</dim>
					<dim>75</dim>
				</port>
				<port id="1">
					<dim>1</dim>
					<dim>64</dim>
					<dim>75</dim>
					<dim>75</dim>
				</port>
			</input>
			<output>
				<port id="2" names="Concat3" precision="FP16">
					<dim>1</dim>
					<dim>128</dim>
					<dim>75</dim>
					<dim>75</dim>
				</port>
			</output>
		</layer>
		<layer id="220" name="1152672636/quantized30345682" type="Const" version="opset1">
			<data element_type="i8" offset="23842" shape="16,128,1,1" size="2048"/>
			<output>
				<port id="0" precision="I8">
					<dim>16</dim>
					<dim>128</dim>
					<dim>1</dim>
					<dim>1</dim>
				</port>
			</output>
		</layer>
		<layer id="221" name="1152672636/quantized/to_f16" type="Convert" version="opset1">
			<data destination_type="f16"/>
			<input>
				<port id="0">
					<dim>16</dim>
					<dim>128</dim>
					<dim>1</dim>
					<dim>1</dim>
				</port>
			</input>
			<output>
				<port id="1" precision="FP16">
					<dim>16</dim>
					<dim>128</dim>
					<dim>1</dim>
					<dim>1</dim>
				</port>
			</output>
		</layer>
		<layer id="222" name="fire5/squeeze1x1/WithoutBiases/fq_weights_1/zero_point30475637" type="Const" version="opset1">
			<data element_type="f16" offset="25890" shape="16,1,1,1" size="32"/>
			<output>
				<port id="0" precision="FP16">
					<dim>16</dim>
					<dim>1</dim>
					<dim>1</dim>
					<dim>1</dim>
				</port>
			</output>
		</layer>
		<layer id="223" name="fire5/squeeze1x1/WithoutBiases/fq_weights_1/minus_zp" type="Subtract" version="opset1">
			<data auto_broadcast="numpy"/>
			<input>
				<port id="0">
					<dim>16</dim>
					<dim>128</dim>
					<dim>1</dim>
					<dim>1</dim>
				</port>
				<port id="1">
					<dim>16</dim>
					<dim>1</dim>
					<dim>1</dim>
					<dim>1</dim>
				</port>
			</input>
			<output>
				<port id="2" precision="FP16">
					<dim>16</dim>
					<dim>128</dim>
					<dim>1</dim>
					<dim>1</dim>
				</port>
			</output>
		</layer>
		<layer id="224" name="fire5/squeeze1x1/WithoutBiases/fq_weights_1/scale30425448" type="Const" version="opset1">
			<data element_type="f16" offset="25922" shape="16,1,1,1" size="32"/>
			<output>
				<port id="0" precision="FP16">
					<dim>16</dim>
					<dim>1</dim>
					<dim>1</dim>
					<dim>1</dim>
				</port>
			</output>
		</layer>
		<layer id="225" name="fire5/squeeze1x1/WithoutBiases/fq_weights_1/mulpiply_by_scale" type="Multiply" version="opset1">
			<data auto_broadcast="numpy"/>
			<input>
				<port id="0">
					<dim>16</dim>
					<dim>128</dim>
					<dim>1</dim>
					<dim>1</dim>
				</port>
				<port id="1">
					<dim>16</dim>
					<dim>1</dim>
					<dim>1</dim>
					<dim>1</dim>
				</port>
			</input>
			<output>
				<port id="2" precision="FP16">
					<dim>16</dim>
					<dim>128</dim>
					<dim>1</dim>
					<dim>1</dim>
				</port>
			</output>
		</layer>
		<layer id="226" name="fire5/squeeze1x1/WithoutBiases" type="Convolution" version="opset1">
			<data auto_pad="explicit" dilations="1,1" pads_begin="0,0" pads_end="0,0" strides="2,2"/>
			<input>
				<port id="0">
					<dim>1</dim>
					<dim>128</dim>
					<dim>75</dim>
					<dim>75</dim>
				</port>
				<port id="1">
					<dim>16</dim>
					<dim>128</dim>
					<dim>1</dim>
					<dim>1</dim>
				</port>
			</input>
			<output>
				<port id="2" precision="FP16">
					<dim>1</dim>
					<dim>16</dim>
					<dim>38</dim>
					<dim>38</dim>
				</port>
			</output>
		</layer>
		<layer id="227" name="fire5/squeeze1x1/Dims14632695103" type="Const" version="opset1">
			<data element_type="f16" offset="25954" shape="1,16,1,1" size="32"/>
			<output>
				<port id="0" precision="FP16">
					<dim>1</dim>
					<dim>16</dim>
					<dim>1</dim>
					<dim>1</dim>
				</port>
			</output>
		</layer>
		<layer id="228" name="fire5/squeeze1x1" type="Add" version="opset1">
			<data auto_broadcast="numpy"/>
			<input>
				<port id="0">
					<dim>1</dim>
					<dim>16</dim>
					<dim>38</dim>
					<dim>38</dim>
				</port>
				<port id="1">
					<dim>1</dim>
					<dim>16</dim>
					<dim>1</dim>
					<dim>1</dim>
				</port>
			</input>
			<output>
				<port id="2" names="fire5/squeeze1x1" precision="FP16">
					<dim>1</dim>
					<dim>16</dim>
					<dim>38</dim>
					<dim>38</dim>
				</port>
			</output>
		</layer>
		<layer id="229" name="fire5/relu_squeeze1x1" type="ReLU" version="opset1">
			<input>
				<port id="0">
					<dim>1</dim>
					<dim>16</dim>
					<dim>38</dim>
					<dim>38</dim>
				</port>
			</input>
			<output>
				<port id="1" names="fire5/squeeze1x1" precision="FP16">
					<dim>1</dim>
					<dim>16</dim>
					<dim>38</dim>
					<dim>38</dim>
				</port>
			</output>
		</layer>
		<layer id="230" name="fire5/expand1x1/WithoutBiases/fq_input_0" type="FakeQuantize" version="opset1">
			<data auto_broadcast="numpy" levels="256"/>
			<input>
				<port id="0">
					<dim>1</dim>
					<dim>16</dim>
					<dim>38</dim>
					<dim>38</dim>
				</port>
				<port id="1"/>
				<port id="2"/>
				<port id="3"/>
				<port id="4"/>
			</input>
			<output>
				<port id="5" precision="FP16">
					<dim>1</dim>
					<dim>16</dim>
					<dim>38</dim>
					<dim>38</dim>
				</port>
			</output>
		</layer>
		<layer id="231" name="1252722638/quantized31785190" type="Const" version="opset1">
			<data element_type="i8" offset="25986" shape="64,16,3,3" size="9216"/>
			<output>
				<port id="0" precision="I8">
					<dim>64</dim>
					<dim>16</dim>
					<dim>3</dim>
					<dim>3</dim>
				</port>
			</output>
		</layer>
		<layer id="232" name="1252722638/quantized/to_f16" type="Convert" version="opset1">
			<data destination_type="f16"/>
			<input>
				<port id="0">
					<dim>64</dim>
					<dim>16</dim>
					<dim>3</dim>
					<dim>3</dim>
				</port>
			</input>
			<output>
				<port id="1" precision="FP16">
					<dim>64</dim>
					<dim>16</dim>
					<dim>3</dim>
					<dim>3</dim>
				</port>
			</output>
		</layer>
		<layer id="233" name="fire5/expand3x3/WithoutBiases/fq_weights_1/zero_point31915667" type="Const" version="opset1">
			<data element_type="f16" offset="35202" shape="64,1,1,1" size="128"/>
			<output>
				<port id="0" precision="FP16">
					<dim>64</dim>
					<dim>1</dim>
					<dim>1</dim>
					<dim>1</dim>
				</port>
			</output>
		</layer>
		<layer id="234" name="fire5/expand3x3/WithoutBiases/fq_weights_1/minus_zp" type="Subtract" version="opset1">
			<data auto_broadcast="numpy"/>
			<input>
				<port id="0">
					<dim>64</dim>
					<dim>16</dim>
					<dim>3</dim>
					<dim>3</dim>
				</port>
				<port id="1">
					<dim>64</dim>
					<dim>1</dim>
					<dim>1</dim>
					<dim>1</dim>
				</port>
			</input>
			<output>
				<port id="2" precision="FP16">
					<dim>64</dim>
					<dim>16</dim>
					<dim>3</dim>
					<dim>3</dim>
				</port>
			</output>
		</layer>
		<layer id="235" name="fire5/expand3x3/WithoutBiases/fq_weights_1/scale31865553" type="Const" version="opset1">
			<data element_type="f16" offset="35330" shape="64,1,1,1" size="128"/>
			<output>
				<port id="0" precision="FP16">
					<dim>64</dim>
					<dim>1</dim>
					<dim>1</dim>
					<dim>1</dim>
				</port>
			</output>
		</layer>
		<layer id="236" name="fire5/expand3x3/WithoutBiases/fq_weights_1/mulpiply_by_scale" type="Multiply" version="opset1">
			<data auto_broadcast="numpy"/>
			<input>
				<port id="0">
					<dim>64</dim>
					<dim>16</dim>
					<dim>3</dim>
					<dim>3</dim>
				</port>
				<port id="1">
					<dim>64</dim>
					<dim>1</dim>
					<dim>1</dim>
					<dim>1</dim>
				</port>
			</input>
			<output>
				<port id="2" precision="FP16">
					<dim>64</dim>
					<dim>16</dim>
					<dim>3</dim>
					<dim>3</dim>
				</port>
			</output>
		</layer>
		<layer id="237" name="fire5/expand3x3/WithoutBiases" type="Convolution" version="opset1">
			<data auto_pad="explicit" dilations="1,1" pads_begin="1,1" pads_end="1,1" strides="1,1"/>
			<input>
				<port id="0">
					<dim>1</dim>
					<dim>16</dim>
					<dim>38</dim>
					<dim>38</dim>
				</port>
				<port id="1">
					<dim>64</dim>
					<dim>16</dim>
					<dim>3</dim>
					<dim>3</dim>
				</port>
			</input>
			<output>
				<port id="2" precision="FP16">
					<dim>1</dim>
					<dim>64</dim>
					<dim>38</dim>
					<dim>38</dim>
				</port>
			</output>
		</layer>
		<layer id="238" name="fire5/expand3x3/Dims14932745397" type="Const" version="opset1">
			<data element_type="f16" offset="35458" shape="1,64,1,1" size="128"/>
			<output>
				<port id="0" precision="FP16">
					<dim>1</dim>
					<dim>64</dim>
					<dim>1</dim>
					<dim>1</dim>
				</port>
			</output>
		</layer>
		<layer id="239" name="fire5/expand3x3" type="Add" version="opset1">
			<data auto_broadcast="numpy"/>
			<input>
				<port id="0">
					<dim>1</dim>
					<dim>64</dim>
					<dim>38</dim>
					<dim>38</dim>
				</port>
				<port id="1">
					<dim>1</dim>
					<dim>64</dim>
					<dim>1</dim>
					<dim>1</dim>
				</port>
			</input>
			<output>
				<port id="2" names="fire5/expand3x3" precision="FP16">
					<dim>1</dim>
					<dim>64</dim>
					<dim>38</dim>
					<dim>38</dim>
				</port>
			</output>
		</layer>
		<layer id="240" name="fire5/relu_expand3x3" type="ReLU" version="opset1">
			<input>
				<port id="0">
					<dim>1</dim>
					<dim>64</dim>
					<dim>38</dim>
					<dim>38</dim>
				</port>
			</input>
			<output>
				<port id="1" names="fire5/expand3x3" precision="FP16">
					<dim>1</dim>
					<dim>64</dim>
					<dim>38</dim>
					<dim>38</dim>
				</port>
			</output>
		</layer>
		<layer id="241" name="Concat4/fq_input_0" type="FakeQuantize" version="opset1">
			<data auto_broadcast="numpy" levels="256"/>
			<input>
				<port id="0">
					<dim>1</dim>
					<dim>64</dim>
					<dim>38</dim>
					<dim>38</dim>
				</port>
				<port id="1"/>
				<port id="2"/>
				<port id="3"/>
				<port id="4"/>
			</input>
			<output>
				<port id="5" precision="FP16">
					<dim>1</dim>
					<dim>64</dim>
					<dim>38</dim>
					<dim>38</dim>
				</port>
			</output>
		</layer>
		<layer id="242" name="182318274929" type="Const" version="opset1">
			<data element_type="f16" offset="0" shape="" size="2"/>
			<output>
				<port id="0" precision="FP16"/>
			</output>
		</layer>
		<layer id="243" name="182418285430" type="Const" version="opset1">
			<data element_type="f16" offset="35586" shape="" size="2"/>
			<output>
				<port id="0" precision="FP16"/>
			</output>
		</layer>
		<layer id="244" name="182518295310" type="Const" version="opset1">
			<data element_type="f16" offset="0" shape="" size="2"/>
			<output>
				<port id="0" precision="FP16"/>
			</output>
		</layer>
		<layer id="245" name="182618304953" type="Const" version="opset1">
			<data element_type="f16" offset="35586" shape="" size="2"/>
			<output>
				<port id="0" precision="FP16"/>
			</output>
		</layer>
		<layer id="246" name="1432772640/quantized30825433" type="Const" version="opset1">
			<data element_type="i8" offset="35588" shape="64,16,1,1" size="1024"/>
			<output>
				<port id="0" precision="I8">
					<dim>64</dim>
					<dim>16</dim>
					<dim>1</dim>
					<dim>1</dim>
				</port>
			</output>
		</layer>
		<layer id="247" name="1432772640/quantized/to_f16" type="Convert" version="opset1">
			<data destination_type="f16"/>
			<input>
				<port id="0">
					<dim>64</dim>
					<dim>16</dim>
					<dim>1</dim>
					<dim>1</dim>
				</port>
			</input>
			<output>
				<port id="1" precision="FP16">
					<dim>64</dim>
					<dim>16</dim>
					<dim>1</dim>
					<dim>1</dim>
				</port>
			</output>
		</layer>
		<layer id="248" name="fire5/expand1x1/WithoutBiases/fq_weights_1/zero_point30955262" type="Const" version="opset1">
			<data element_type="f16" offset="36612" shape="64,1,1,1" size="128"/>
			<output>
				<port id="0" precision="FP16">
					<dim>64</dim>
					<dim>1</dim>
					<dim>1</dim>
					<dim>1</dim>
				</port>
			</output>
		</layer>
		<layer id="249" name="fire5/expand1x1/WithoutBiases/fq_weights_1/minus_zp" type="Subtract" version="opset1">
			<data auto_broadcast="numpy"/>
			<input>
				<port id="0">
					<dim>64</dim>
					<dim>16</dim>
					<dim>1</dim>
					<dim>1</dim>
				</port>
				<port id="1">
					<dim>64</dim>
					<dim>1</dim>
					<dim>1</dim>
					<dim>1</dim>
				</port>
			</input>
			<output>
				<port id="2" precision="FP16">
					<dim>64</dim>
					<dim>16</dim>
					<dim>1</dim>
					<dim>1</dim>
				</port>
			</output>
		</layer>
		<layer id="250" name="fire5/expand1x1/WithoutBiases/fq_weights_1/scale30905163" type="Const" version="opset1">
			<data element_type="f16" offset="36740" shape="64,1,1,1" size="128"/>
			<output>
				<port id="0" precision="FP16">
					<dim>64</dim>
					<dim>1</dim>
					<dim>1</dim>
					<dim>1</dim>
				</port>
			</output>
		</layer>
		<layer id="251" name="fire5/expand1x1/WithoutBiases/fq_weights_1/mulpiply_by_scale" type="Multiply" version="opset1">
			<data auto_broadcast="numpy"/>
			<input>
				<port id="0">
					<dim>64</dim>
					<dim>16</dim>
					<dim>1</dim>
					<dim>1</dim>
				</port>
				<port id="1">
					<dim>64</dim>
					<dim>1</dim>
					<dim>1</dim>
					<dim>1</dim>
				</port>
			</input>
			<output>
				<port id="2" precision="FP16">
					<dim>64</dim>
					<dim>16</dim>
					<dim>1</dim>
					<dim>1</dim>
				</port>
			</output>
		</layer>
		<layer id="252" name="fire5/expand1x1/WithoutBiases" type="Convolution" version="opset1">
			<data auto_pad="explicit" dilations="1,1" pads_begin="0,0" pads_end="0,0" strides="1,1"/>
			<input>
				<port id="0">
					<dim>1</dim>
					<dim>16</dim>
					<dim>38</dim>
					<dim>38</dim>
				</port>
				<port id="1">
					<dim>64</dim>
					<dim>16</dim>
					<dim>1</dim>
					<dim>1</dim>
				</port>
			</input>
			<output>
				<port id="2" precision="FP16">
					<dim>1</dim>
					<dim>64</dim>
					<dim>38</dim>
					<dim>38</dim>
				</port>
			</output>
		</layer>
		<layer id="253" name="fire5/expand1x1/Dims15412795427" type="Const" version="opset1">
			<data element_type="f16" offset="36868" shape="1,64,1,1" size="128"/>
			<output>
				<port id="0" precision="FP16">
					<dim>1</dim>
					<dim>64</dim>
					<dim>1</dim>
					<dim>1</dim>
				</port>
			</output>
		</layer>
		<layer id="254" name="fire5/expand1x1" type="Add" version="opset1">
			<data auto_broadcast="numpy"/>
			<input>
				<port id="0">
					<dim>1</dim>
					<dim>64</dim>
					<dim>38</dim>
					<dim>38</dim>
				</port>
				<port id="1">
					<dim>1</dim>
					<dim>64</dim>
					<dim>1</dim>
					<dim>1</dim>
				</port>
			</input>
			<output>
				<port id="2" names="fire5/expand1x1" precision="FP16">
					<dim>1</dim>
					<dim>64</dim>
					<dim>38</dim>
					<dim>38</dim>
				</port>
			</output>
		</layer>
		<layer id="255" name="fire5/relu_expand1x1" type="ReLU" version="opset1">
			<input>
				<port id="0">
					<dim>1</dim>
					<dim>64</dim>
					<dim>38</dim>
					<dim>38</dim>
				</port>
			</input>
			<output>
				<port id="1" names="fire5/expand1x1" precision="FP16">
					<dim>1</dim>
					<dim>64</dim>
					<dim>38</dim>
					<dim>38</dim>
				</port>
			</output>
		</layer>
		<layer id="256" name="Concat4/fq_input_1" type="FakeQuantize" version="opset1">
			<data auto_broadcast="numpy" levels="256"/>
			<input>
				<port id="0">
					<dim>1</dim>
					<dim>64</dim>
					<dim>38</dim>
					<dim>38</dim>
				</port>
				<port id="1"/>
				<port id="2"/>
				<port id="3"/>
				<port id="4"/>
			</input>
			<output>
				<port id="5" precision="FP16">
					<dim>1</dim>
					<dim>64</dim>
					<dim>38</dim>
					<dim>38</dim>
				</port>
			</output>
		</layer>
		<layer id="257" name="Concat4" type="Concat" version="opset1">
			<data axis="1"/>
			<input>
				<port id="0">
					<dim>1</dim>
					<dim>64</dim>
					<dim>38</dim>
					<dim>38</dim>
				</port>
				<port id="1">
					<dim>1</dim>
					<dim>64</dim>
					<dim>38</dim>
					<dim>38</dim>
				</port>
			</input>
			<output>
				<port id="2" names="Concat4" precision="FP16">
					<dim>1</dim>
					<dim>128</dim>
					<dim>38</dim>
					<dim>38</dim>
				</port>
			</output>
		</layer>
		<layer id="258" name="1472832642/quantized32745526" type="Const" version="opset1">
			<data element_type="i8" offset="36996" shape="24,128,1,1" size="3072"/>
			<output>
				<port id="0" precision="I8">
					<dim>24</dim>
					<dim>128</dim>
					<dim>1</dim>
					<dim>1</dim>
				</port>
			</output>
		</layer>
		<layer id="259" name="1472832642/quantized/to_f16" type="Convert" version="opset1">
			<data destination_type="f16"/>
			<input>
				<port id="0">
					<dim>24</dim>
					<dim>128</dim>
					<dim>1</dim>
					<dim>1</dim>
				</port>
			</input>
			<output>
				<port id="1" precision="FP16">
					<dim>24</dim>
					<dim>128</dim>
					<dim>1</dim>
					<dim>1</dim>
				</port>
			</output>
		</layer>
		<layer id="260" name="fire6/squeeze1x1/WithoutBiases/fq_weights_1/zero_point32875055" type="Const" version="opset1">
			<data element_type="f16" offset="40068" shape="24,1,1,1" size="48"/>
			<output>
				<port id="0" precision="FP16">
					<dim>24</dim>
					<dim>1</dim>
					<dim>1</dim>
					<dim>1</dim>
				</port>
			</output>
		</layer>
		<layer id="261" name="fire6/squeeze1x1/WithoutBiases/fq_weights_1/minus_zp" type="Subtract" version="opset1">
			<data auto_broadcast="numpy"/>
			<input>
				<port id="0">
					<dim>24</dim>
					<dim>128</dim>
					<dim>1</dim>
					<dim>1</dim>
				</port>
				<port id="1">
					<dim>24</dim>
					<dim>1</dim>
					<dim>1</dim>
					<dim>1</dim>
				</port>
			</input>
			<output>
				<port id="2" precision="FP16">
					<dim>24</dim>
					<dim>128</dim>
					<dim>1</dim>
					<dim>1</dim>
				</port>
			</output>
		</layer>
		<layer id="262" name="fire6/squeeze1x1/WithoutBiases/fq_weights_1/scale32825499" type="Const" version="opset1">
			<data element_type="f16" offset="40116" shape="24,1,1,1" size="48"/>
			<output>
				<port id="0" precision="FP16">
					<dim>24</dim>
					<dim>1</dim>
					<dim>1</dim>
					<dim>1</dim>
				</port>
			</output>
		</layer>
		<layer id="263" name="fire6/squeeze1x1/WithoutBiases/fq_weights_1/mulpiply_by_scale" type="Multiply" version="opset1">
			<data auto_broadcast="numpy"/>
			<input>
				<port id="0">
					<dim>24</dim>
					<dim>128</dim>
					<dim>1</dim>
					<dim>1</dim>
				</port>
				<port id="1">
					<dim>24</dim>
					<dim>1</dim>
					<dim>1</dim>
					<dim>1</dim>
				</port>
			</input>
			<output>
				<port id="2" precision="FP16">
					<dim>24</dim>
					<dim>128</dim>
					<dim>1</dim>
					<dim>1</dim>
				</port>
			</output>
		</layer>
		<layer id="264" name="fire6/squeeze1x1/WithoutBiases" type="Convolution" version="opset1">
			<data auto_pad="explicit" dilations="1,1" pads_begin="0,0" pads_end="0,0" strides="1,1"/>
			<input>
				<port id="0">
					<dim>1</dim>
					<dim>128</dim>
					<dim>38</dim>
					<dim>38</dim>
				</port>
				<port id="1">
					<dim>24</dim>
					<dim>128</dim>
					<dim>1</dim>
					<dim>1</dim>
				</port>
			</input>
			<output>
				<port id="2" precision="FP16">
					<dim>1</dim>
					<dim>24</dim>
					<dim>38</dim>
					<dim>38</dim>
				</port>
			</output>
		</layer>
		<layer id="265" name="fire6/squeeze1x1/Dims15532855592" type="Const" version="opset1">
			<data element_type="f16" offset="40164" shape="1,24,1,1" size="48"/>
			<output>
				<port id="0" precision="FP16">
					<dim>1</dim>
					<dim>24</dim>
					<dim>1</dim>
					<dim>1</dim>
				</port>
			</output>
		</layer>
		<layer id="266" name="fire6/squeeze1x1" type="Add" version="opset1">
			<data auto_broadcast="numpy"/>
			<input>
				<port id="0">
					<dim>1</dim>
					<dim>24</dim>
					<dim>38</dim>
					<dim>38</dim>
				</port>
				<port id="1">
					<dim>1</dim>
					<dim>24</dim>
					<dim>1</dim>
					<dim>1</dim>
				</port>
			</input>
			<output>
				<port id="2" names="fire6/squeeze1x1" precision="FP16">
					<dim>1</dim>
					<dim>24</dim>
					<dim>38</dim>
					<dim>38</dim>
				</port>
			</output>
		</layer>
		<layer id="267" name="fire6/relu_squeeze1x1" type="ReLU" version="opset1">
			<input>
				<port id="0">
					<dim>1</dim>
					<dim>24</dim>
					<dim>38</dim>
					<dim>38</dim>
				</port>
			</input>
			<output>
				<port id="1" names="fire6/squeeze1x1" precision="FP16">
					<dim>1</dim>
					<dim>24</dim>
					<dim>38</dim>
					<dim>38</dim>
				</port>
			</output>
		</layer>
		<layer id="268" name="fire6/expand1x1/WithoutBiases/fq_input_0" type="FakeQuantize" version="opset1">
			<data auto_broadcast="numpy" levels="256"/>
			<input>
				<port id="0">
					<dim>1</dim>
					<dim>24</dim>
					<dim>38</dim>
					<dim>38</dim>
				</port>
				<port id="1"/>
				<port id="2"/>
				<port id="3"/>
				<port id="4"/>
			</input>
			<output>
				<port id="5" precision="FP16">
					<dim>1</dim>
					<dim>24</dim>
					<dim>38</dim>
					<dim>38</dim>
				</port>
			</output>
		</layer>
		<layer id="269" name="992882644/quantized33465178" type="Const" version="opset1">
			<data element_type="i8" offset="40212" shape="96,24,3,3" size="20736"/>
			<output>
				<port id="0" precision="I8">
					<dim>96</dim>
					<dim>24</dim>
					<dim>3</dim>
					<dim>3</dim>
				</port>
			</output>
		</layer>
		<layer id="270" name="992882644/quantized/to_f16" type="Convert" version="opset1">
			<data destination_type="f16"/>
			<input>
				<port id="0">
					<dim>96</dim>
					<dim>24</dim>
					<dim>3</dim>
					<dim>3</dim>
				</port>
			</input>
			<output>
				<port id="1" precision="FP16">
					<dim>96</dim>
					<dim>24</dim>
					<dim>3</dim>
					<dim>3</dim>
				</port>
			</output>
		</layer>
		<layer id="271" name="fire6/expand3x3/WithoutBiases/fq_weights_1/zero_point33595352" type="Const" version="opset1">
			<data element_type="f16" offset="60948" shape="96,1,1,1" size="192"/>
			<output>
				<port id="0" precision="FP16">
					<dim>96</dim>
					<dim>1</dim>
					<dim>1</dim>
					<dim>1</dim>
				</port>
			</output>
		</layer>
		<layer id="272" name="fire6/expand3x3/WithoutBiases/fq_weights_1/minus_zp" type="Subtract" version="opset1">
			<data auto_broadcast="numpy"/>
			<input>
				<port id="0">
					<dim>96</dim>
					<dim>24</dim>
					<dim>3</dim>
					<dim>3</dim>
				</port>
				<port id="1">
					<dim>96</dim>
					<dim>1</dim>
					<dim>1</dim>
					<dim>1</dim>
				</port>
			</input>
			<output>
				<port id="2" precision="FP16">
					<dim>96</dim>
					<dim>24</dim>
					<dim>3</dim>
					<dim>3</dim>
				</port>
			</output>
		</layer>
		<layer id="273" name="fire6/expand3x3/WithoutBiases/fq_weights_1/scale33545406" type="Const" version="opset1">
			<data element_type="f16" offset="61140" shape="96,1,1,1" size="192"/>
			<output>
				<port id="0" precision="FP16">
					<dim>96</dim>
					<dim>1</dim>
					<dim>1</dim>
					<dim>1</dim>
				</port>
			</output>
		</layer>
		<layer id="274" name="fire6/expand3x3/WithoutBiases/fq_weights_1/mulpiply_by_scale" type="Multiply" version="opset1">
			<data auto_broadcast="numpy"/>
			<input>
				<port id="0">
					<dim>96</dim>
					<dim>24</dim>
					<dim>3</dim>
					<dim>3</dim>
				</port>
				<port id="1">
					<dim>96</dim>
					<dim>1</dim>
					<dim>1</dim>
					<dim>1</dim>
				</port>
			</input>
			<output>
				<port id="2" precision="FP16">
					<dim>96</dim>
					<dim>24</dim>
					<dim>3</dim>
					<dim>3</dim>
				</port>
			</output>
		</layer>
		<layer id="275" name="fire6/expand3x3/WithoutBiases" type="Convolution" version="opset1">
			<data auto_pad="explicit" dilations="1,1" pads_begin="1,1" pads_end="1,1" strides="1,1"/>
			<input>
				<port id="0">
					<dim>1</dim>
					<dim>24</dim>
					<dim>38</dim>
					<dim>38</dim>
				</port>
				<port id="1">
					<dim>96</dim>
					<dim>24</dim>
					<dim>3</dim>
					<dim>3</dim>
				</port>
			</input>
			<output>
				<port id="2" precision="FP16">
					<dim>1</dim>
					<dim>96</dim>
					<dim>38</dim>
					<dim>38</dim>
				</port>
			</output>
		</layer>
		<layer id="276" name="fire6/expand3x3/Dims14152904875" type="Const" version="opset1">
			<data element_type="f16" offset="61332" shape="1,96,1,1" size="192"/>
			<output>
				<port id="0" precision="FP16">
					<dim>1</dim>
					<dim>96</dim>
					<dim>1</dim>
					<dim>1</dim>
				</port>
			</output>
		</layer>
		<layer id="277" name="fire6/expand3x3" type="Add" version="opset1">
			<data auto_broadcast="numpy"/>
			<input>
				<port id="0">
					<dim>1</dim>
					<dim>96</dim>
					<dim>38</dim>
					<dim>38</dim>
				</port>
				<port id="1">
					<dim>1</dim>
					<dim>96</dim>
					<dim>1</dim>
					<dim>1</dim>
				</port>
			</input>
			<output>
				<port id="2" names="fire6/expand3x3" precision="FP16">
					<dim>1</dim>
					<dim>96</dim>
					<dim>38</dim>
					<dim>38</dim>
				</port>
			</output>
		</layer>
		<layer id="278" name="fire6/relu_expand3x3" type="ReLU" version="opset1">
			<input>
				<port id="0">
					<dim>1</dim>
					<dim>96</dim>
					<dim>38</dim>
					<dim>38</dim>
				</port>
			</input>
			<output>
				<port id="1" names="fire6/expand3x3" precision="FP16">
					<dim>1</dim>
					<dim>96</dim>
					<dim>38</dim>
					<dim>38</dim>
				</port>
			</output>
		</layer>
		<layer id="279" name="Concat5/fq_input_0" type="FakeQuantize" version="opset1">
			<data auto_broadcast="numpy" levels="256"/>
			<input>
				<port id="0">
					<dim>1</dim>
					<dim>96</dim>
					<dim>38</dim>
					<dim>38</dim>
				</port>
				<port id="1"/>
				<port id="2"/>
				<port id="3"/>
				<port id="4"/>
			</input>
			<output>
				<port id="5" precision="FP16">
					<dim>1</dim>
					<dim>96</dim>
					<dim>38</dim>
					<dim>38</dim>
				</port>
			</output>
		</layer>
		<layer id="280" name="184318475547" type="Const" version="opset1">
			<data element_type="f16" offset="0" shape="" size="2"/>
			<output>
				<port id="0" precision="FP16"/>
			</output>
		</layer>
		<layer id="281" name="184418485259" type="Const" version="opset1">
			<data element_type="f16" offset="61524" shape="" size="2"/>
			<output>
				<port id="0" precision="FP16"/>
			</output>
		</layer>
		<layer id="282" name="184518495208" type="Const" version="opset1">
			<data element_type="f16" offset="0" shape="" size="2"/>
			<output>
				<port id="0" precision="FP16"/>
			</output>
		</layer>
		<layer id="283" name="184618505559" type="Const" version="opset1">
			<data element_type="f16" offset="61524" shape="" size="2"/>
			<output>
				<port id="0" precision="FP16"/>
			</output>
		</layer>
		<layer id="284" name="1272932646/quantized36584920" type="Const" version="opset1">
			<data element_type="i8" offset="61526" shape="96,24,1,1" size="2304"/>
			<output>
				<port id="0" precision="I8">
					<dim>96</dim>
					<dim>24</dim>
					<dim>1</dim>
					<dim>1</dim>
				</port>
			</output>
		</layer>
		<layer id="285" name="1272932646/quantized/to_f16" type="Convert" version="opset1">
			<data destination_type="f16"/>
			<input>
				<port id="0">
					<dim>96</dim>
					<dim>24</dim>
					<dim>1</dim>
					<dim>1</dim>
				</port>
			</input>
			<output>
				<port id="1" precision="FP16">
					<dim>96</dim>
					<dim>24</dim>
					<dim>1</dim>
					<dim>1</dim>
				</port>
			</output>
		</layer>
		<layer id="286" name="fire6/expand1x1/WithoutBiases/fq_weights_1/zero_point36715361" type="Const" version="opset1">
			<data element_type="f16" offset="63830" shape="96,1,1,1" size="192"/>
			<output>
				<port id="0" precision="FP16">
					<dim>96</dim>
					<dim>1</dim>
					<dim>1</dim>
					<dim>1</dim>
				</port>
			</output>
		</layer>
		<layer id="287" name="fire6/expand1x1/WithoutBiases/fq_weights_1/minus_zp" type="Subtract" version="opset1">
			<data auto_broadcast="numpy"/>
			<input>
				<port id="0">
					<dim>96</dim>
					<dim>24</dim>
					<dim>1</dim>
					<dim>1</dim>
				</port>
				<port id="1">
					<dim>96</dim>
					<dim>1</dim>
					<dim>1</dim>
					<dim>1</dim>
				</port>
			</input>
			<output>
				<port id="2" precision="FP16">
					<dim>96</dim>
					<dim>24</dim>
					<dim>1</dim>
					<dim>1</dim>
				</port>
			</output>
		</layer>
		<layer id="288" name="fire6/expand1x1/WithoutBiases/fq_weights_1/scale36665544" type="Const" version="opset1">
			<data element_type="f16" offset="64022" shape="96,1,1,1" size="192"/>
			<output>
				<port id="0" precision="FP16">
					<dim>96</dim>
					<dim>1</dim>
					<dim>1</dim>
					<dim>1</dim>
				</port>
			</output>
		</layer>
		<layer id="289" name="fire6/expand1x1/WithoutBiases/fq_weights_1/mulpiply_by_scale" type="Multiply" version="opset1">
			<data auto_broadcast="numpy"/>
			<input>
				<port id="0">
					<dim>96</dim>
					<dim>24</dim>
					<dim>1</dim>
					<dim>1</dim>
				</port>
				<port id="1">
					<dim>96</dim>
					<dim>1</dim>
					<dim>1</dim>
					<dim>1</dim>
				</port>
			</input>
			<output>
				<port id="2" precision="FP16">
					<dim>96</dim>
					<dim>24</dim>
					<dim>1</dim>
					<dim>1</dim>
				</port>
			</output>
		</layer>
		<layer id="290" name="fire6/expand1x1/WithoutBiases" type="Convolution" version="opset1">
			<data auto_pad="explicit" dilations="1,1" pads_begin="0,0" pads_end="0,0" strides="1,1"/>
			<input>
				<port id="0">
					<dim>1</dim>
					<dim>24</dim>
					<dim>38</dim>
					<dim>38</dim>
				</port>
				<port id="1">
					<dim>96</dim>
					<dim>24</dim>
					<dim>1</dim>
					<dim>1</dim>
				</port>
			</input>
			<output>
				<port id="2" precision="FP16">
					<dim>1</dim>
					<dim>96</dim>
					<dim>38</dim>
					<dim>38</dim>
				</port>
			</output>
		</layer>
		<layer id="291" name="fire6/expand1x1/Dims14992955568" type="Const" version="opset1">
			<data element_type="f16" offset="64214" shape="1,96,1,1" size="192"/>
			<output>
				<port id="0" precision="FP16">
					<dim>1</dim>
					<dim>96</dim>
					<dim>1</dim>
					<dim>1</dim>
				</port>
			</output>
		</layer>
		<layer id="292" name="fire6/expand1x1" type="Add" version="opset1">
			<data auto_broadcast="numpy"/>
			<input>
				<port id="0">
					<dim>1</dim>
					<dim>96</dim>
					<dim>38</dim>
					<dim>38</dim>
				</port>
				<port id="1">
					<dim>1</dim>
					<dim>96</dim>
					<dim>1</dim>
					<dim>1</dim>
				</port>
			</input>
			<output>
				<port id="2" names="fire6/expand1x1" precision="FP16">
					<dim>1</dim>
					<dim>96</dim>
					<dim>38</dim>
					<dim>38</dim>
				</port>
			</output>
		</layer>
		<layer id="293" name="fire6/relu_expand1x1" type="ReLU" version="opset1">
			<input>
				<port id="0">
					<dim>1</dim>
					<dim>96</dim>
					<dim>38</dim>
					<dim>38</dim>
				</port>
			</input>
			<output>
				<port id="1" names="fire6/expand1x1" precision="FP16">
					<dim>1</dim>
					<dim>96</dim>
					<dim>38</dim>
					<dim>38</dim>
				</port>
			</output>
		</layer>
		<layer id="294" name="Concat5/fq_input_1" type="FakeQuantize" version="opset1">
			<data auto_broadcast="numpy" levels="256"/>
			<input>
				<port id="0">
					<dim>1</dim>
					<dim>96</dim>
					<dim>38</dim>
					<dim>38</dim>
				</port>
				<port id="1"/>
				<port id="2"/>
				<port id="3"/>
				<port id="4"/>
			</input>
			<output>
				<port id="5" precision="FP16">
					<dim>1</dim>
					<dim>96</dim>
					<dim>38</dim>
					<dim>38</dim>
				</port>
			</output>
		</layer>
		<layer id="295" name="Concat5" type="Concat" version="opset1">
			<data axis="1"/>
			<input>
				<port id="0">
					<dim>1</dim>
					<dim>96</dim>
					<dim>38</dim>
					<dim>38</dim>
				</port>
				<port id="1">
					<dim>1</dim>
					<dim>96</dim>
					<dim>38</dim>
					<dim>38</dim>
				</port>
			</input>
			<output>
				<port id="2" names="Concat5" precision="FP16">
					<dim>1</dim>
					<dim>192</dim>
					<dim>38</dim>
					<dim>38</dim>
				</port>
			</output>
		</layer>
		<layer id="296" name="952992648/quantized37305460" type="Const" version="opset1">
			<data element_type="i8" offset="64406" shape="24,192,1,1" size="4608"/>
			<output>
				<port id="0" precision="I8">
					<dim>24</dim>
					<dim>192</dim>
					<dim>1</dim>
					<dim>1</dim>
				</port>
			</output>
		</layer>
		<layer id="297" name="952992648/quantized/to_f16" type="Convert" version="opset1">
			<data destination_type="f16"/>
			<input>
				<port id="0">
					<dim>24</dim>
					<dim>192</dim>
					<dim>1</dim>
					<dim>1</dim>
				</port>
			</input>
			<output>
				<port id="1" precision="FP16">
					<dim>24</dim>
					<dim>192</dim>
					<dim>1</dim>
					<dim>1</dim>
				</port>
			</output>
		</layer>
		<layer id="298" name="fire7/squeeze1x1/WithoutBiases/fq_weights_1/zero_point37435346" type="Const" version="opset1">
			<data element_type="f16" offset="69014" shape="24,1,1,1" size="48"/>
			<output>
				<port id="0" precision="FP16">
					<dim>24</dim>
					<dim>1</dim>
					<dim>1</dim>
					<dim>1</dim>
				</port>
			</output>
		</layer>
		<layer id="299" name="fire7/squeeze1x1/WithoutBiases/fq_weights_1/minus_zp" type="Subtract" version="opset1">
			<data auto_broadcast="numpy"/>
			<input>
				<port id="0">
					<dim>24</dim>
					<dim>192</dim>
					<dim>1</dim>
					<dim>1</dim>
				</port>
				<port id="1">
					<dim>24</dim>
					<dim>1</dim>
					<dim>1</dim>
					<dim>1</dim>
				</port>
			</input>
			<output>
				<port id="2" precision="FP16">
					<dim>24</dim>
					<dim>192</dim>
					<dim>1</dim>
					<dim>1</dim>
				</port>
			</output>
		</layer>
		<layer id="300" name="fire7/squeeze1x1/WithoutBiases/fq_weights_1/scale37384956" type="Const" version="opset1">
			<data element_type="f16" offset="69062" shape="24,1,1,1" size="48"/>
			<output>
				<port id="0" precision="FP16">
					<dim>24</dim>
					<dim>1</dim>
					<dim>1</dim>
					<dim>1</dim>
				</port>
			</output>
		</layer>
		<layer id="301" name="fire7/squeeze1x1/WithoutBiases/fq_weights_1/mulpiply_by_scale" type="Multiply" version="opset1">
			<data auto_broadcast="numpy"/>
			<input>
				<port id="0">
					<dim>24</dim>
					<dim>192</dim>
					<dim>1</dim>
					<dim>1</dim>
				</port>
				<port id="1">
					<dim>24</dim>
					<dim>1</dim>
					<dim>1</dim>
					<dim>1</dim>
				</port>
			</input>
			<output>
				<port id="2" precision="FP16">
					<dim>24</dim>
					<dim>192</dim>
					<dim>1</dim>
					<dim>1</dim>
				</port>
			</output>
		</layer>
		<layer id="302" name="fire7/squeeze1x1/WithoutBiases" type="Convolution" version="opset1">
			<data auto_pad="explicit" dilations="1,1" pads_begin="0,0" pads_end="0,0" strides="1,1"/>
			<input>
				<port id="0">
					<dim>1</dim>
					<dim>192</dim>
					<dim>38</dim>
					<dim>38</dim>
				</port>
				<port id="1">
					<dim>24</dim>
					<dim>192</dim>
					<dim>1</dim>
					<dim>1</dim>
				</port>
			</input>
			<output>
				<port id="2" precision="FP16">
					<dim>1</dim>
					<dim>24</dim>
					<dim>38</dim>
					<dim>38</dim>
				</port>
			</output>
		</layer>
		<layer id="303" name="fire7/squeeze1x1/Dims14033015277" type="Const" version="opset1">
			<data element_type="f16" offset="69110" shape="1,24,1,1" size="48"/>
			<output>
				<port id="0" precision="FP16">
					<dim>1</dim>
					<dim>24</dim>
					<dim>1</dim>
					<dim>1</dim>
				</port>
			</output>
		</layer>
		<layer id="304" name="fire7/squeeze1x1" type="Add" version="opset1">
			<data auto_broadcast="numpy"/>
			<input>
				<port id="0">
					<dim>1</dim>
					<dim>24</dim>
					<dim>38</dim>
					<dim>38</dim>
				</port>
				<port id="1">
					<dim>1</dim>
					<dim>24</dim>
					<dim>1</dim>
					<dim>1</dim>
				</port>
			</input>
			<output>
				<port id="2" names="fire7/squeeze1x1" precision="FP16">
					<dim>1</dim>
					<dim>24</dim>
					<dim>38</dim>
					<dim>38</dim>
				</port>
			</output>
		</layer>
		<layer id="305" name="fire7/relu_squeeze1x1" type="ReLU" version="opset1">
			<input>
				<port id="0">
					<dim>1</dim>
					<dim>24</dim>
					<dim>38</dim>
					<dim>38</dim>
				</port>
			</input>
			<output>
				<port id="1" names="fire7/squeeze1x1" precision="FP16">
					<dim>1</dim>
					<dim>24</dim>
					<dim>38</dim>
					<dim>38</dim>
				</port>
			</output>
		</layer>
		<layer id="306" name="fire7/expand1x1/WithoutBiases/fq_input_0" type="FakeQuantize" version="opset1">
			<data auto_broadcast="numpy" levels="256"/>
			<input>
				<port id="0">
					<dim>1</dim>
					<dim>24</dim>
					<dim>38</dim>
					<dim>38</dim>
				</port>
				<port id="1"/>
				<port id="2"/>
				<port id="3"/>
				<port id="4"/>
			</input>
			<output>
				<port id="5" precision="FP16">
					<dim>1</dim>
					<dim>24</dim>
					<dim>38</dim>
					<dim>38</dim>
				</port>
			</output>
		</layer>
		<layer id="307" name="1033042650/quantized34665343" type="Const" version="opset1">
			<data element_type="i8" offset="69158" shape="96,24,3,3" size="20736"/>
			<output>
				<port id="0" precision="I8">
					<dim>96</dim>
					<dim>24</dim>
					<dim>3</dim>
					<dim>3</dim>
				</port>
			</output>
		</layer>
		<layer id="308" name="1033042650/quantized/to_f16" type="Convert" version="opset1">
			<data destination_type="f16"/>
			<input>
				<port id="0">
					<dim>96</dim>
					<dim>24</dim>
					<dim>3</dim>
					<dim>3</dim>
				</port>
			</input>
			<output>
				<port id="1" precision="FP16">
					<dim>96</dim>
					<dim>24</dim>
					<dim>3</dim>
					<dim>3</dim>
				</port>
			</output>
		</layer>
		<layer id="309" name="fire7/expand3x3/WithoutBiases/fq_weights_1/zero_point34795358" type="Const" version="opset1">
			<data element_type="f16" offset="89894" shape="96,1,1,1" size="192"/>
			<output>
				<port id="0" precision="FP16">
					<dim>96</dim>
					<dim>1</dim>
					<dim>1</dim>
					<dim>1</dim>
				</port>
			</output>
		</layer>
		<layer id="310" name="fire7/expand3x3/WithoutBiases/fq_weights_1/minus_zp" type="Subtract" version="opset1">
			<data auto_broadcast="numpy"/>
			<input>
				<port id="0">
					<dim>96</dim>
					<dim>24</dim>
					<dim>3</dim>
					<dim>3</dim>
				</port>
				<port id="1">
					<dim>96</dim>
					<dim>1</dim>
					<dim>1</dim>
					<dim>1</dim>
				</port>
			</input>
			<output>
				<port id="2" precision="FP16">
					<dim>96</dim>
					<dim>24</dim>
					<dim>3</dim>
					<dim>3</dim>
				</port>
			</output>
		</layer>
		<layer id="311" name="fire7/expand3x3/WithoutBiases/fq_weights_1/scale34745625" type="Const" version="opset1">
			<data element_type="f16" offset="90086" shape="96,1,1,1" size="192"/>
			<output>
				<port id="0" precision="FP16">
					<dim>96</dim>
					<dim>1</dim>
					<dim>1</dim>
					<dim>1</dim>
				</port>
			</output>
		</layer>
		<layer id="312" name="fire7/expand3x3/WithoutBiases/fq_weights_1/mulpiply_by_scale" type="Multiply" version="opset1">
			<data auto_broadcast="numpy"/>
			<input>
				<port id="0">
					<dim>96</dim>
					<dim>24</dim>
					<dim>3</dim>
					<dim>3</dim>
				</port>
				<port id="1">
					<dim>96</dim>
					<dim>1</dim>
					<dim>1</dim>
					<dim>1</dim>
				</port>
			</input>
			<output>
				<port id="2" precision="FP16">
					<dim>96</dim>
					<dim>24</dim>
					<dim>3</dim>
					<dim>3</dim>
				</port>
			</output>
		</layer>
		<layer id="313" name="fire7/expand3x3/WithoutBiases" type="Convolution" version="opset1">
			<data auto_pad="explicit" dilations="1,1" pads_begin="1,1" pads_end="1,1" strides="1,1"/>
			<input>
				<port id="0">
					<dim>1</dim>
					<dim>24</dim>
					<dim>38</dim>
					<dim>38</dim>
				</port>
				<port id="1">
					<dim>96</dim>
					<dim>24</dim>
					<dim>3</dim>
					<dim>3</dim>
				</port>
			</input>
			<output>
				<port id="2" precision="FP16">
					<dim>1</dim>
					<dim>96</dim>
					<dim>38</dim>
					<dim>38</dim>
				</port>
			</output>
		</layer>
		<layer id="314" name="fire7/expand3x3/Dims14273064917" type="Const" version="opset1">
			<data element_type="f16" offset="90278" shape="1,96,1,1" size="192"/>
			<output>
				<port id="0" precision="FP16">
					<dim>1</dim>
					<dim>96</dim>
					<dim>1</dim>
					<dim>1</dim>
				</port>
			</output>
		</layer>
		<layer id="315" name="fire7/expand3x3" type="Add" version="opset1">
			<data auto_broadcast="numpy"/>
			<input>
				<port id="0">
					<dim>1</dim>
					<dim>96</dim>
					<dim>38</dim>
					<dim>38</dim>
				</port>
				<port id="1">
					<dim>1</dim>
					<dim>96</dim>
					<dim>1</dim>
					<dim>1</dim>
				</port>
			</input>
			<output>
				<port id="2" names="fire7/expand3x3" precision="FP16">
					<dim>1</dim>
					<dim>96</dim>
					<dim>38</dim>
					<dim>38</dim>
				</port>
			</output>
		</layer>
		<layer id="316" name="fire7/relu_expand3x3" type="ReLU" version="opset1">
			<input>
				<port id="0">
					<dim>1</dim>
					<dim>96</dim>
					<dim>38</dim>
					<dim>38</dim>
				</port>
			</input>
			<output>
				<port id="1" names="fire7/expand3x3" precision="FP16">
					<dim>1</dim>
					<dim>96</dim>
					<dim>38</dim>
					<dim>38</dim>
				</port>
			</output>
		</layer>
		<layer id="317" name="Concat6/fq_input_0" type="FakeQuantize" version="opset1">
			<data auto_broadcast="numpy" levels="256"/>
			<input>
				<port id="0">
					<dim>1</dim>
					<dim>96</dim>
					<dim>38</dim>
					<dim>38</dim>
				</port>
				<port id="1"/>
				<port id="2"/>
				<port id="3"/>
				<port id="4"/>
			</input>
			<output>
				<port id="5" precision="FP16">
					<dim>1</dim>
					<dim>96</dim>
					<dim>38</dim>
					<dim>38</dim>
				</port>
			</output>
		</layer>
		<layer id="318" name="186318675304" type="Const" version="opset1">
			<data element_type="f16" offset="0" shape="" size="2"/>
			<output>
				<port id="0" precision="FP16"/>
			</output>
		</layer>
		<layer id="319" name="186418685535" type="Const" version="opset1">
			<data element_type="f16" offset="90470" shape="" size="2"/>
			<output>
				<port id="0" precision="FP16"/>
			</output>
		</layer>
		<layer id="320" name="186518695418" type="Const" version="opset1">
			<data element_type="f16" offset="0" shape="" size="2"/>
			<output>
				<port id="0" precision="FP16"/>
			</output>
		</layer>
		<layer id="321" name="186618705295" type="Const" version="opset1">
			<data element_type="f16" offset="90470" shape="" size="2"/>
			<output>
				<port id="0" precision="FP16"/>
			</output>
		</layer>
		<layer id="322" name="1193092652/quantized30105250" type="Const" version="opset1">
			<data element_type="i8" offset="90472" shape="96,24,1,1" size="2304"/>
			<output>
				<port id="0" precision="I8">
					<dim>96</dim>
					<dim>24</dim>
					<dim>1</dim>
					<dim>1</dim>
				</port>
			</output>
		</layer>
		<layer id="323" name="1193092652/quantized/to_f16" type="Convert" version="opset1">
			<data destination_type="f16"/>
			<input>
				<port id="0">
					<dim>96</dim>
					<dim>24</dim>
					<dim>1</dim>
					<dim>1</dim>
				</port>
			</input>
			<output>
				<port id="1" precision="FP16">
					<dim>96</dim>
					<dim>24</dim>
					<dim>1</dim>
					<dim>1</dim>
				</port>
			</output>
		</layer>
		<layer id="324" name="fire7/expand1x1/WithoutBiases/fq_weights_1/zero_point30235529" type="Const" version="opset1">
			<data element_type="f16" offset="92776" shape="96,1,1,1" size="192"/>
			<output>
				<port id="0" precision="FP16">
					<dim>96</dim>
					<dim>1</dim>
					<dim>1</dim>
					<dim>1</dim>
				</port>
			</output>
		</layer>
		<layer id="325" name="fire7/expand1x1/WithoutBiases/fq_weights_1/minus_zp" type="Subtract" version="opset1">
			<data auto_broadcast="numpy"/>
			<input>
				<port id="0">
					<dim>96</dim>
					<dim>24</dim>
					<dim>1</dim>
					<dim>1</dim>
				</port>
				<port id="1">
					<dim>96</dim>
					<dim>1</dim>
					<dim>1</dim>
					<dim>1</dim>
				</port>
			</input>
			<output>
				<port id="2" precision="FP16">
					<dim>96</dim>
					<dim>24</dim>
					<dim>1</dim>
					<dim>1</dim>
				</port>
			</output>
		</layer>
		<layer id="326" name="fire7/expand1x1/WithoutBiases/fq_weights_1/scale30185520" type="Const" version="opset1">
			<data element_type="f16" offset="92968" shape="96,1,1,1" size="192"/>
			<output>
				<port id="0" precision="FP16">
					<dim>96</dim>
					<dim>1</dim>
					<dim>1</dim>
					<dim>1</dim>
				</port>
			</output>
		</layer>
		<layer id="327" name="fire7/expand1x1/WithoutBiases/fq_weights_1/mulpiply_by_scale" type="Multiply" version="opset1">
			<data auto_broadcast="numpy"/>
			<input>
				<port id="0">
					<dim>96</dim>
					<dim>24</dim>
					<dim>1</dim>
					<dim>1</dim>
				</port>
				<port id="1">
					<dim>96</dim>
					<dim>1</dim>
					<dim>1</dim>
					<dim>1</dim>
				</port>
			</input>
			<output>
				<port id="2" precision="FP16">
					<dim>96</dim>
					<dim>24</dim>
					<dim>1</dim>
					<dim>1</dim>
				</port>
			</output>
		</layer>
		<layer id="328" name="fire7/expand1x1/WithoutBiases" type="Convolution" version="opset1">
			<data auto_pad="explicit" dilations="1,1" pads_begin="0,0" pads_end="0,0" strides="1,1"/>
			<input>
				<port id="0">
					<dim>1</dim>
					<dim>24</dim>
					<dim>38</dim>
					<dim>38</dim>
				</port>
				<port id="1">
					<dim>96</dim>
					<dim>24</dim>
					<dim>1</dim>
					<dim>1</dim>
				</port>
			</input>
			<output>
				<port id="2" precision="FP16">
					<dim>1</dim>
					<dim>96</dim>
					<dim>38</dim>
					<dim>38</dim>
				</port>
			</output>
		</layer>
		<layer id="329" name="fire7/expand1x1/Dims14753115166" type="Const" version="opset1">
			<data element_type="f16" offset="93160" shape="1,96,1,1" size="192"/>
			<output>
				<port id="0" precision="FP16">
					<dim>1</dim>
					<dim>96</dim>
					<dim>1</dim>
					<dim>1</dim>
				</port>
			</output>
		</layer>
		<layer id="330" name="fire7/expand1x1" type="Add" version="opset1">
			<data auto_broadcast="numpy"/>
			<input>
				<port id="0">
					<dim>1</dim>
					<dim>96</dim>
					<dim>38</dim>
					<dim>38</dim>
				</port>
				<port id="1">
					<dim>1</dim>
					<dim>96</dim>
					<dim>1</dim>
					<dim>1</dim>
				</port>
			</input>
			<output>
				<port id="2" names="fire7/expand1x1" precision="FP16">
					<dim>1</dim>
					<dim>96</dim>
					<dim>38</dim>
					<dim>38</dim>
				</port>
			</output>
		</layer>
		<layer id="331" name="fire7/relu_expand1x1" type="ReLU" version="opset1">
			<input>
				<port id="0">
					<dim>1</dim>
					<dim>96</dim>
					<dim>38</dim>
					<dim>38</dim>
				</port>
			</input>
			<output>
				<port id="1" names="fire7/expand1x1" precision="FP16">
					<dim>1</dim>
					<dim>96</dim>
					<dim>38</dim>
					<dim>38</dim>
				</port>
			</output>
		</layer>
		<layer id="332" name="Concat6/fq_input_1" type="FakeQuantize" version="opset1">
			<data auto_broadcast="numpy" levels="256"/>
			<input>
				<port id="0">
					<dim>1</dim>
					<dim>96</dim>
					<dim>38</dim>
					<dim>38</dim>
				</port>
				<port id="1"/>
				<port id="2"/>
				<port id="3"/>
				<port id="4"/>
			</input>
			<output>
				<port id="5" precision="FP16">
					<dim>1</dim>
					<dim>96</dim>
					<dim>38</dim>
					<dim>38</dim>
				</port>
			</output>
		</layer>
		<layer id="333" name="Concat6" type="Concat" version="opset1">
			<data axis="1"/>
			<input>
				<port id="0">
					<dim>1</dim>
					<dim>96</dim>
					<dim>38</dim>
					<dim>38</dim>
				</port>
				<port id="1">
					<dim>1</dim>
					<dim>96</dim>
					<dim>38</dim>
					<dim>38</dim>
				</port>
			</input>
			<output>
				<port id="2" names="Concat6" precision="FP16">
					<dim>1</dim>
					<dim>192</dim>
					<dim>38</dim>
					<dim>38</dim>
				</port>
			</output>
		</layer>
		<layer id="334" name="1013152654/quantized31305223" type="Const" version="opset1">
			<data element_type="i8" offset="93352" shape="32,192,1,1" size="6144"/>
			<output>
				<port id="0" precision="I8">
					<dim>32</dim>
					<dim>192</dim>
					<dim>1</dim>
					<dim>1</dim>
				</port>
			</output>
		</layer>
		<layer id="335" name="1013152654/quantized/to_f16" type="Convert" version="opset1">
			<data destination_type="f16"/>
			<input>
				<port id="0">
					<dim>32</dim>
					<dim>192</dim>
					<dim>1</dim>
					<dim>1</dim>
				</port>
			</input>
			<output>
				<port id="1" precision="FP16">
					<dim>32</dim>
					<dim>192</dim>
					<dim>1</dim>
					<dim>1</dim>
				</port>
			</output>
		</layer>
		<layer id="336" name="fire8/squeeze1x1/WithoutBiases/fq_weights_1/zero_point31435319" type="Const" version="opset1">
			<data element_type="f16" offset="99496" shape="32,1,1,1" size="64"/>
			<output>
				<port id="0" precision="FP16">
					<dim>32</dim>
					<dim>1</dim>
					<dim>1</dim>
					<dim>1</dim>
				</port>
			</output>
		</layer>
		<layer id="337" name="fire8/squeeze1x1/WithoutBiases/fq_weights_1/minus_zp" type="Subtract" version="opset1">
			<data auto_broadcast="numpy"/>
			<input>
				<port id="0">
					<dim>32</dim>
					<dim>192</dim>
					<dim>1</dim>
					<dim>1</dim>
				</port>
				<port id="1">
					<dim>32</dim>
					<dim>1</dim>
					<dim>1</dim>
					<dim>1</dim>
				</port>
			</input>
			<output>
				<port id="2" precision="FP16">
					<dim>32</dim>
					<dim>192</dim>
					<dim>1</dim>
					<dim>1</dim>
				</port>
			</output>
		</layer>
		<layer id="338" name="fire8/squeeze1x1/WithoutBiases/fq_weights_1/scale31385493" type="Const" version="opset1">
			<data element_type="f16" offset="99560" shape="32,1,1,1" size="64"/>
			<output>
				<port id="0" precision="FP16">
					<dim>32</dim>
					<dim>1</dim>
					<dim>1</dim>
					<dim>1</dim>
				</port>
			</output>
		</layer>
		<layer id="339" name="fire8/squeeze1x1/WithoutBiases/fq_weights_1/mulpiply_by_scale" type="Multiply" version="opset1">
			<data auto_broadcast="numpy"/>
			<input>
				<port id="0">
					<dim>32</dim>
					<dim>192</dim>
					<dim>1</dim>
					<dim>1</dim>
				</port>
				<port id="1">
					<dim>32</dim>
					<dim>1</dim>
					<dim>1</dim>
					<dim>1</dim>
				</port>
			</input>
			<output>
				<port id="2" precision="FP16">
					<dim>32</dim>
					<dim>192</dim>
					<dim>1</dim>
					<dim>1</dim>
				</port>
			</output>
		</layer>
		<layer id="340" name="fire8/squeeze1x1/WithoutBiases" type="Convolution" version="opset1">
			<data auto_pad="explicit" dilations="1,1" pads_begin="0,0" pads_end="0,0" strides="1,1"/>
			<input>
				<port id="0">
					<dim>1</dim>
					<dim>192</dim>
					<dim>38</dim>
					<dim>38</dim>
				</port>
				<port id="1">
					<dim>32</dim>
					<dim>192</dim>
					<dim>1</dim>
					<dim>1</dim>
				</port>
			</input>
			<output>
				<port id="2" precision="FP16">
					<dim>1</dim>
					<dim>32</dim>
					<dim>38</dim>
					<dim>38</dim>
				</port>
			</output>
		</layer>
		<layer id="341" name="fire8/squeeze1x1/Dims14213174941" type="Const" version="opset1">
			<data element_type="f16" offset="99624" shape="1,32,1,1" size="64"/>
			<output>
				<port id="0" precision="FP16">
					<dim>1</dim>
					<dim>32</dim>
					<dim>1</dim>
					<dim>1</dim>
				</port>
			</output>
		</layer>
		<layer id="342" name="fire8/squeeze1x1" type="Add" version="opset1">
			<data auto_broadcast="numpy"/>
			<input>
				<port id="0">
					<dim>1</dim>
					<dim>32</dim>
					<dim>38</dim>
					<dim>38</dim>
				</port>
				<port id="1">
					<dim>1</dim>
					<dim>32</dim>
					<dim>1</dim>
					<dim>1</dim>
				</port>
			</input>
			<output>
				<port id="2" names="fire8/squeeze1x1" precision="FP16">
					<dim>1</dim>
					<dim>32</dim>
					<dim>38</dim>
					<dim>38</dim>
				</port>
			</output>
		</layer>
		<layer id="343" name="fire8/relu_squeeze1x1" type="ReLU" version="opset1">
			<input>
				<port id="0">
					<dim>1</dim>
					<dim>32</dim>
					<dim>38</dim>
					<dim>38</dim>
				</port>
			</input>
			<output>
				<port id="1" names="fire8/squeeze1x1" precision="FP16">
					<dim>1</dim>
					<dim>32</dim>
					<dim>38</dim>
					<dim>38</dim>
				</port>
			</output>
		</layer>
		<layer id="344" name="fire8/expand1x1/WithoutBiases/fq_input_0" type="FakeQuantize" version="opset1">
			<data auto_broadcast="numpy" levels="256"/>
			<input>
				<port id="0">
					<dim>1</dim>
					<dim>32</dim>
					<dim>38</dim>
					<dim>38</dim>
				</port>
				<port id="1"/>
				<port id="2"/>
				<port id="3"/>
				<port id="4"/>
			</input>
			<output>
				<port id="5" precision="FP16">
					<dim>1</dim>
					<dim>32</dim>
					<dim>38</dim>
					<dim>38</dim>
				</port>
			</output>
		</layer>
		<layer id="345" name="1093202656/quantized36825244" type="Const" version="opset1">
			<data element_type="i8" offset="99688" shape="128,32,3,3" size="36864"/>
			<output>
				<port id="0" precision="I8">
					<dim>128</dim>
					<dim>32</dim>
					<dim>3</dim>
					<dim>3</dim>
				</port>
			</output>
		</layer>
		<layer id="346" name="1093202656/quantized/to_f16" type="Convert" version="opset1">
			<data destination_type="f16"/>
			<input>
				<port id="0">
					<dim>128</dim>
					<dim>32</dim>
					<dim>3</dim>
					<dim>3</dim>
				</port>
			</input>
			<output>
				<port id="1" precision="FP16">
					<dim>128</dim>
					<dim>32</dim>
					<dim>3</dim>
					<dim>3</dim>
				</port>
			</output>
		</layer>
		<layer id="347" name="fire8/expand3x3/WithoutBiases/fq_weights_1/zero_point36955382" type="Const" version="opset1">
			<data element_type="f16" offset="136552" shape="128,1,1,1" size="256"/>
			<output>
				<port id="0" precision="FP16">
					<dim>128</dim>
					<dim>1</dim>
					<dim>1</dim>
					<dim>1</dim>
				</port>
			</output>
		</layer>
		<layer id="348" name="fire8/expand3x3/WithoutBiases/fq_weights_1/minus_zp" type="Subtract" version="opset1">
			<data auto_broadcast="numpy"/>
			<input>
				<port id="0">
					<dim>128</dim>
					<dim>32</dim>
					<dim>3</dim>
					<dim>3</dim>
				</port>
				<port id="1">
					<dim>128</dim>
					<dim>1</dim>
					<dim>1</dim>
					<dim>1</dim>
				</port>
			</input>
			<output>
				<port id="2" precision="FP16">
					<dim>128</dim>
					<dim>32</dim>
					<dim>3</dim>
					<dim>3</dim>
				</port>
			</output>
		</layer>
		<layer id="349" name="fire8/expand3x3/WithoutBiases/fq_weights_1/scale36905169" type="Const" version="opset1">
			<data element_type="f16" offset="136808" shape="128,1,1,1" size="256"/>
			<output>
				<port id="0" precision="FP16">
					<dim>128</dim>
					<dim>1</dim>
					<dim>1</dim>
					<dim>1</dim>
				</port>
			</output>
		</layer>
		<layer id="350" name="fire8/expand3x3/WithoutBiases/fq_weights_1/mulpiply_by_scale" type="Multiply" version="opset1">
			<data auto_broadcast="numpy"/>
			<input>
				<port id="0">
					<dim>128</dim>
					<dim>32</dim>
					<dim>3</dim>
					<dim>3</dim>
				</port>
				<port id="1">
					<dim>128</dim>
					<dim>1</dim>
					<dim>1</dim>
					<dim>1</dim>
				</port>
			</input>
			<output>
				<port id="2" precision="FP16">
					<dim>128</dim>
					<dim>32</dim>
					<dim>3</dim>
					<dim>3</dim>
				</port>
			</output>
		</layer>
		<layer id="351" name="fire8/expand3x3/WithoutBiases" type="Convolution" version="opset1">
			<data auto_pad="explicit" dilations="1,1" pads_begin="1,1" pads_end="1,1" strides="1,1"/>
			<input>
				<port id="0">
					<dim>1</dim>
					<dim>32</dim>
					<dim>38</dim>
					<dim>38</dim>
				</port>
				<port id="1">
					<dim>128</dim>
					<dim>32</dim>
					<dim>3</dim>
					<dim>3</dim>
				</port>
			</input>
			<output>
				<port id="2" precision="FP16">
					<dim>1</dim>
					<dim>128</dim>
					<dim>38</dim>
					<dim>38</dim>
				</port>
			</output>
		</layer>
		<layer id="352" name="fire8/expand3x3/Dims14453225454" type="Const" version="opset1">
			<data element_type="f16" offset="137064" shape="1,128,1,1" size="256"/>
			<output>
				<port id="0" precision="FP16">
					<dim>1</dim>
					<dim>128</dim>
					<dim>1</dim>
					<dim>1</dim>
				</port>
			</output>
		</layer>
		<layer id="353" name="fire8/expand3x3" type="Add" version="opset1">
			<data auto_broadcast="numpy"/>
			<input>
				<port id="0">
					<dim>1</dim>
					<dim>128</dim>
					<dim>38</dim>
					<dim>38</dim>
				</port>
				<port id="1">
					<dim>1</dim>
					<dim>128</dim>
					<dim>1</dim>
					<dim>1</dim>
				</port>
			</input>
			<output>
				<port id="2" names="fire8/expand3x3" precision="FP16">
					<dim>1</dim>
					<dim>128</dim>
					<dim>38</dim>
					<dim>38</dim>
				</port>
			</output>
		</layer>
		<layer id="354" name="fire8/relu_expand3x3" type="ReLU" version="opset1">
			<input>
				<port id="0">
					<dim>1</dim>
					<dim>128</dim>
					<dim>38</dim>
					<dim>38</dim>
				</port>
			</input>
			<output>
				<port id="1" names="fire8/expand3x3" precision="FP16">
					<dim>1</dim>
					<dim>128</dim>
					<dim>38</dim>
					<dim>38</dim>
				</port>
			</output>
		</layer>
		<layer id="355" name="Concat7/fq_input_0" type="FakeQuantize" version="opset1">
			<data auto_broadcast="numpy" levels="256"/>
			<input>
				<port id="0">
					<dim>1</dim>
					<dim>128</dim>
					<dim>38</dim>
					<dim>38</dim>
				</port>
				<port id="1"/>
				<port id="2"/>
				<port id="3"/>
				<port id="4"/>
			</input>
			<output>
				<port id="5" precision="FP16">
					<dim>1</dim>
					<dim>128</dim>
					<dim>38</dim>
					<dim>38</dim>
				</port>
			</output>
		</layer>
		<layer id="356" name="188318874995" type="Const" version="opset1">
			<data element_type="f16" offset="0" shape="" size="2"/>
			<output>
				<port id="0" precision="FP16"/>
			</output>
		</layer>
		<layer id="357" name="188418884926" type="Const" version="opset1">
			<data element_type="f16" offset="137320" shape="" size="2"/>
			<output>
				<port id="0" precision="FP16"/>
			</output>
		</layer>
		<layer id="358" name="188518895421" type="Const" version="opset1">
			<data element_type="f16" offset="0" shape="" size="2"/>
			<output>
				<port id="0" precision="FP16"/>
			</output>
		</layer>
		<layer id="359" name="188618905205" type="Const" version="opset1">
			<data element_type="f16" offset="137320" shape="" size="2"/>
			<output>
				<port id="0" precision="FP16"/>
			</output>
		</layer>
		<layer id="360" name="1053252658/quantized29865613" type="Const" version="opset1">
			<data element_type="i8" offset="137322" shape="128,32,1,1" size="4096"/>
			<output>
				<port id="0" precision="I8">
					<dim>128</dim>
					<dim>32</dim>
					<dim>1</dim>
					<dim>1</dim>
				</port>
			</output>
		</layer>
		<layer id="361" name="1053252658/quantized/to_f16" type="Convert" version="opset1">
			<data destination_type="f16"/>
			<input>
				<port id="0">
					<dim>128</dim>
					<dim>32</dim>
					<dim>1</dim>
					<dim>1</dim>
				</port>
			</input>
			<output>
				<port id="1" precision="FP16">
					<dim>128</dim>
					<dim>32</dim>
					<dim>1</dim>
					<dim>1</dim>
				</port>
			</output>
		</layer>
		<layer id="362" name="fire8/expand1x1/WithoutBiases/fq_weights_1/zero_point29995412" type="Const" version="opset1">
			<data element_type="f16" offset="141418" shape="128,1,1,1" size="256"/>
			<output>
				<port id="0" precision="FP16">
					<dim>128</dim>
					<dim>1</dim>
					<dim>1</dim>
					<dim>1</dim>
				</port>
			</output>
		</layer>
		<layer id="363" name="fire8/expand1x1/WithoutBiases/fq_weights_1/minus_zp" type="Subtract" version="opset1">
			<data auto_broadcast="numpy"/>
			<input>
				<port id="0">
					<dim>128</dim>
					<dim>32</dim>
					<dim>1</dim>
					<dim>1</dim>
				</port>
				<port id="1">
					<dim>128</dim>
					<dim>1</dim>
					<dim>1</dim>
					<dim>1</dim>
				</port>
			</input>
			<output>
				<port id="2" precision="FP16">
					<dim>128</dim>
					<dim>32</dim>
					<dim>1</dim>
					<dim>1</dim>
				</port>
			</output>
		</layer>
		<layer id="364" name="fire8/expand1x1/WithoutBiases/fq_weights_1/scale29945238" type="Const" version="opset1">
			<data element_type="f16" offset="141674" shape="128,1,1,1" size="256"/>
			<output>
				<port id="0" precision="FP16">
					<dim>128</dim>
					<dim>1</dim>
					<dim>1</dim>
					<dim>1</dim>
				</port>
			</output>
		</layer>
		<layer id="365" name="fire8/expand1x1/WithoutBiases/fq_weights_1/mulpiply_by_scale" type="Multiply" version="opset1">
			<data auto_broadcast="numpy"/>
			<input>
				<port id="0">
					<dim>128</dim>
					<dim>32</dim>
					<dim>1</dim>
					<dim>1</dim>
				</port>
				<port id="1">
					<dim>128</dim>
					<dim>1</dim>
					<dim>1</dim>
					<dim>1</dim>
				</port>
			</input>
			<output>
				<port id="2" precision="FP16">
					<dim>128</dim>
					<dim>32</dim>
					<dim>1</dim>
					<dim>1</dim>
				</port>
			</output>
		</layer>
		<layer id="366" name="fire8/expand1x1/WithoutBiases" type="Convolution" version="opset1">
			<data auto_pad="explicit" dilations="1,1" pads_begin="0,0" pads_end="0,0" strides="1,1"/>
			<input>
				<port id="0">
					<dim>1</dim>
					<dim>32</dim>
					<dim>38</dim>
					<dim>38</dim>
				</port>
				<port id="1">
					<dim>128</dim>
					<dim>32</dim>
					<dim>1</dim>
					<dim>1</dim>
				</port>
			</input>
			<output>
				<port id="2" precision="FP16">
					<dim>1</dim>
					<dim>128</dim>
					<dim>38</dim>
					<dim>38</dim>
				</port>
			</output>
		</layer>
		<layer id="367" name="fire8/expand1x1/Dims14333274971" type="Const" version="opset1">
			<data element_type="f16" offset="141930" shape="1,128,1,1" size="256"/>
			<output>
				<port id="0" precision="FP16">
					<dim>1</dim>
					<dim>128</dim>
					<dim>1</dim>
					<dim>1</dim>
				</port>
			</output>
		</layer>
		<layer id="368" name="fire8/expand1x1" type="Add" version="opset1">
			<data auto_broadcast="numpy"/>
			<input>
				<port id="0">
					<dim>1</dim>
					<dim>128</dim>
					<dim>38</dim>
					<dim>38</dim>
				</port>
				<port id="1">
					<dim>1</dim>
					<dim>128</dim>
					<dim>1</dim>
					<dim>1</dim>
				</port>
			</input>
			<output>
				<port id="2" names="fire8/expand1x1" precision="FP16">
					<dim>1</dim>
					<dim>128</dim>
					<dim>38</dim>
					<dim>38</dim>
				</port>
			</output>
		</layer>
		<layer id="369" name="fire8/relu_expand1x1" type="ReLU" version="opset1">
			<input>
				<port id="0">
					<dim>1</dim>
					<dim>128</dim>
					<dim>38</dim>
					<dim>38</dim>
				</port>
			</input>
			<output>
				<port id="1" names="fire8/expand1x1" precision="FP16">
					<dim>1</dim>
					<dim>128</dim>
					<dim>38</dim>
					<dim>38</dim>
				</port>
			</output>
		</layer>
		<layer id="370" name="Concat7/fq_input_1" type="FakeQuantize" version="opset1">
			<data auto_broadcast="numpy" levels="256"/>
			<input>
				<port id="0">
					<dim>1</dim>
					<dim>128</dim>
					<dim>38</dim>
					<dim>38</dim>
				</port>
				<port id="1"/>
				<port id="2"/>
				<port id="3"/>
				<port id="4"/>
			</input>
			<output>
				<port id="5" precision="FP16">
					<dim>1</dim>
					<dim>128</dim>
					<dim>38</dim>
					<dim>38</dim>
				</port>
			</output>
		</layer>
		<layer id="371" name="Concat7" type="Concat" version="opset1">
			<data axis="1"/>
			<input>
				<port id="0">
					<dim>1</dim>
					<dim>128</dim>
					<dim>38</dim>
					<dim>38</dim>
				</port>
				<port id="1">
					<dim>1</dim>
					<dim>128</dim>
					<dim>38</dim>
					<dim>38</dim>
				</port>
			</input>
			<output>
				<port id="2" names="Concat7" precision="FP16">
					<dim>1</dim>
					<dim>256</dim>
					<dim>38</dim>
					<dim>38</dim>
				</port>
			</output>
		</layer>
		<layer id="372" name="1533312660/quantized32265511" type="Const" version="opset1">
			<data element_type="i8" offset="142186" shape="32,256,1,1" size="8192"/>
			<output>
				<port id="0" precision="I8">
					<dim>32</dim>
					<dim>256</dim>
					<dim>1</dim>
					<dim>1</dim>
				</port>
			</output>
		</layer>
		<layer id="373" name="1533312660/quantized/to_f16" type="Convert" version="opset1">
			<data destination_type="f16"/>
			<input>
				<port id="0">
					<dim>32</dim>
					<dim>256</dim>
					<dim>1</dim>
					<dim>1</dim>
				</port>
			</input>
			<output>
				<port id="1" precision="FP16">
					<dim>32</dim>
					<dim>256</dim>
					<dim>1</dim>
					<dim>1</dim>
				</port>
			</output>
		</layer>
		<layer id="374" name="fire9/squeeze1x1/WithoutBiases/fq_weights_1/zero_point32395034" type="Const" version="opset1">
			<data element_type="f16" offset="150378" shape="32,1,1,1" size="64"/>
			<output>
				<port id="0" precision="FP16">
					<dim>32</dim>
					<dim>1</dim>
					<dim>1</dim>
					<dim>1</dim>
				</port>
			</output>
		</layer>
		<layer id="375" name="fire9/squeeze1x1/WithoutBiases/fq_weights_1/minus_zp" type="Subtract" version="opset1">
			<data auto_broadcast="numpy"/>
			<input>
				<port id="0">
					<dim>32</dim>
					<dim>256</dim>
					<dim>1</dim>
					<dim>1</dim>
				</port>
				<port id="1">
					<dim>32</dim>
					<dim>1</dim>
					<dim>1</dim>
					<dim>1</dim>
				</port>
			</input>
			<output>
				<port id="2" precision="FP16">
					<dim>32</dim>
					<dim>256</dim>
					<dim>1</dim>
					<dim>1</dim>
				</port>
			</output>
		</layer>
		<layer id="376" name="fire9/squeeze1x1/WithoutBiases/fq_weights_1/scale32345595" type="Const" version="opset1">
			<data element_type="f16" offset="150442" shape="32,1,1,1" size="64"/>
			<output>
				<port id="0" precision="FP16">
					<dim>32</dim>
					<dim>1</dim>
					<dim>1</dim>
					<dim>1</dim>
				</port>
			</output>
		</layer>
		<layer id="377" name="fire9/squeeze1x1/WithoutBiases/fq_weights_1/mulpiply_by_scale" type="Multiply" version="opset1">
			<data auto_broadcast="numpy"/>
			<input>
				<port id="0">
					<dim>32</dim>
					<dim>256</dim>
					<dim>1</dim>
					<dim>1</dim>
				</port>
				<port id="1">
					<dim>32</dim>
					<dim>1</dim>
					<dim>1</dim>
					<dim>1</dim>
				</port>
			</input>
			<output>
				<port id="2" precision="FP16">
					<dim>32</dim>
					<dim>256</dim>
					<dim>1</dim>
					<dim>1</dim>
				</port>
			</output>
		</layer>
		<layer id="378" name="fire9/squeeze1x1/WithoutBiases" type="Convolution" version="opset1">
			<data auto_pad="explicit" dilations="1,1" pads_begin="0,0" pads_end="0,0" strides="2,2"/>
			<input>
				<port id="0">
					<dim>1</dim>
					<dim>256</dim>
					<dim>38</dim>
					<dim>38</dim>
				</port>
				<port id="1">
					<dim>32</dim>
					<dim>256</dim>
					<dim>1</dim>
					<dim>1</dim>
				</port>
			</input>
			<output>
				<port id="2" precision="FP16">
					<dim>1</dim>
					<dim>32</dim>
					<dim>19</dim>
					<dim>19</dim>
				</port>
			</output>
		</layer>
		<layer id="379" name="fire9/squeeze1x1/Dims15713335388" type="Const" version="opset1">
			<data element_type="f16" offset="150506" shape="1,32,1,1" size="64"/>
			<output>
				<port id="0" precision="FP16">
					<dim>1</dim>
					<dim>32</dim>
					<dim>1</dim>
					<dim>1</dim>
				</port>
			</output>
		</layer>
		<layer id="380" name="fire9/squeeze1x1" type="Add" version="opset1">
			<data auto_broadcast="numpy"/>
			<input>
				<port id="0">
					<dim>1</dim>
					<dim>32</dim>
					<dim>19</dim>
					<dim>19</dim>
				</port>
				<port id="1">
					<dim>1</dim>
					<dim>32</dim>
					<dim>1</dim>
					<dim>1</dim>
				</port>
			</input>
			<output>
				<port id="2" names="fire9/squeeze1x1" precision="FP16">
					<dim>1</dim>
					<dim>32</dim>
					<dim>19</dim>
					<dim>19</dim>
				</port>
			</output>
		</layer>
		<layer id="381" name="fire9/relu_squeeze1x1" type="ReLU" version="opset1">
			<input>
				<port id="0">
					<dim>1</dim>
					<dim>32</dim>
					<dim>19</dim>
					<dim>19</dim>
				</port>
			</input>
			<output>
				<port id="1" names="fire9/squeeze1x1" precision="FP16">
					<dim>1</dim>
					<dim>32</dim>
					<dim>19</dim>
					<dim>19</dim>
				</port>
			</output>
		</layer>
		<layer id="382" name="fire9/expand1x1/WithoutBiases/fq_input_0" type="FakeQuantize" version="opset1">
			<data auto_broadcast="numpy" levels="256"/>
			<input>
				<port id="0">
					<dim>1</dim>
					<dim>32</dim>
					<dim>19</dim>
					<dim>19</dim>
				</port>
				<port id="1"/>
				<port id="2"/>
				<port id="3"/>
				<port id="4"/>
			</input>
			<output>
				<port id="5" precision="FP16">
					<dim>1</dim>
					<dim>32</dim>
					<dim>19</dim>
					<dim>19</dim>
				</port>
			</output>
		</layer>
		<layer id="383" name="1413362662/quantized37065301" type="Const" version="opset1">
			<data element_type="i8" offset="150570" shape="128,32,3,3" size="36864"/>
			<output>
				<port id="0" precision="I8">
					<dim>128</dim>
					<dim>32</dim>
					<dim>3</dim>
					<dim>3</dim>
				</port>
			</output>
		</layer>
		<layer id="384" name="1413362662/quantized/to_f16" type="Convert" version="opset1">
			<data destination_type="f16"/>
			<input>
				<port id="0">
					<dim>128</dim>
					<dim>32</dim>
					<dim>3</dim>
					<dim>3</dim>
				</port>
			</input>
			<output>
				<port id="1" precision="FP16">
					<dim>128</dim>
					<dim>32</dim>
					<dim>3</dim>
					<dim>3</dim>
				</port>
			</output>
		</layer>
		<layer id="385" name="fire9/expand3x3/WithoutBiases/fq_weights_1/zero_point37195385" type="Const" version="opset1">
			<data element_type="f16" offset="187434" shape="128,1,1,1" size="256"/>
			<output>
				<port id="0" precision="FP16">
					<dim>128</dim>
					<dim>1</dim>
					<dim>1</dim>
					<dim>1</dim>
				</port>
			</output>
		</layer>
		<layer id="386" name="fire9/expand3x3/WithoutBiases/fq_weights_1/minus_zp" type="Subtract" version="opset1">
			<data auto_broadcast="numpy"/>
			<input>
				<port id="0">
					<dim>128</dim>
					<dim>32</dim>
					<dim>3</dim>
					<dim>3</dim>
				</port>
				<port id="1">
					<dim>128</dim>
					<dim>1</dim>
					<dim>1</dim>
					<dim>1</dim>
				</port>
			</input>
			<output>
				<port id="2" precision="FP16">
					<dim>128</dim>
					<dim>32</dim>
					<dim>3</dim>
					<dim>3</dim>
				</port>
			</output>
		</layer>
		<layer id="387" name="fire9/expand3x3/WithoutBiases/fq_weights_1/scale37145508" type="Const" version="opset1">
			<data element_type="f16" offset="187690" shape="128,1,1,1" size="256"/>
			<output>
				<port id="0" precision="FP16">
					<dim>128</dim>
					<dim>1</dim>
					<dim>1</dim>
					<dim>1</dim>
				</port>
			</output>
		</layer>
		<layer id="388" name="fire9/expand3x3/WithoutBiases/fq_weights_1/mulpiply_by_scale" type="Multiply" version="opset1">
			<data auto_broadcast="numpy"/>
			<input>
				<port id="0">
					<dim>128</dim>
					<dim>32</dim>
					<dim>3</dim>
					<dim>3</dim>
				</port>
				<port id="1">
					<dim>128</dim>
					<dim>1</dim>
					<dim>1</dim>
					<dim>1</dim>
				</port>
			</input>
			<output>
				<port id="2" precision="FP16">
					<dim>128</dim>
					<dim>32</dim>
					<dim>3</dim>
					<dim>3</dim>
				</port>
			</output>
		</layer>
		<layer id="389" name="fire9/expand3x3/WithoutBiases" type="Convolution" version="opset1">
			<data auto_pad="explicit" dilations="1,1" pads_begin="1,1" pads_end="1,1" strides="1,1"/>
			<input>
				<port id="0">
					<dim>1</dim>
					<dim>32</dim>
					<dim>19</dim>
					<dim>19</dim>
				</port>
				<port id="1">
					<dim>128</dim>
					<dim>32</dim>
					<dim>3</dim>
					<dim>3</dim>
				</port>
			</input>
			<output>
				<port id="2" precision="FP16">
					<dim>1</dim>
					<dim>128</dim>
					<dim>19</dim>
					<dim>19</dim>
				</port>
			</output>
		</layer>
		<layer id="390" name="fire9/expand3x3/Dims15353385127" type="Const" version="opset1">
			<data element_type="f16" offset="187946" shape="1,128,1,1" size="256"/>
			<output>
				<port id="0" precision="FP16">
					<dim>1</dim>
					<dim>128</dim>
					<dim>1</dim>
					<dim>1</dim>
				</port>
			</output>
		</layer>
		<layer id="391" name="fire9/expand3x3" type="Add" version="opset1">
			<data auto_broadcast="numpy"/>
			<input>
				<port id="0">
					<dim>1</dim>
					<dim>128</dim>
					<dim>19</dim>
					<dim>19</dim>
				</port>
				<port id="1">
					<dim>1</dim>
					<dim>128</dim>
					<dim>1</dim>
					<dim>1</dim>
				</port>
			</input>
			<output>
				<port id="2" names="fire9/expand3x3" precision="FP16">
					<dim>1</dim>
					<dim>128</dim>
					<dim>19</dim>
					<dim>19</dim>
				</port>
			</output>
		</layer>
		<layer id="392" name="fire9/relu_expand3x3" type="ReLU" version="opset1">
			<input>
				<port id="0">
					<dim>1</dim>
					<dim>128</dim>
					<dim>19</dim>
					<dim>19</dim>
				</port>
			</input>
			<output>
				<port id="1" names="fire9/expand3x3" precision="FP16">
					<dim>1</dim>
					<dim>128</dim>
					<dim>19</dim>
					<dim>19</dim>
				</port>
			</output>
		</layer>
		<layer id="393" name="Concat8/fq_input_0" type="FakeQuantize" version="opset1">
			<data auto_broadcast="numpy" levels="256"/>
			<input>
				<port id="0">
					<dim>1</dim>
					<dim>128</dim>
					<dim>19</dim>
					<dim>19</dim>
				</port>
				<port id="1"/>
				<port id="2"/>
				<port id="3"/>
				<port id="4"/>
			</input>
			<output>
				<port id="5" precision="FP16">
					<dim>1</dim>
					<dim>128</dim>
					<dim>19</dim>
					<dim>19</dim>
				</port>
			</output>
		</layer>
		<layer id="394" name="171317175307" type="Const" version="opset1">
			<data element_type="f16" offset="0" shape="" size="2"/>
			<output>
				<port id="0" precision="FP16"/>
			</output>
		</layer>
		<layer id="395" name="171417184932" type="Const" version="opset1">
			<data element_type="f16" offset="188202" shape="" size="2"/>
			<output>
				<port id="0" precision="FP16"/>
			</output>
		</layer>
		<layer id="396" name="171517195337" type="Const" version="opset1">
			<data element_type="f16" offset="0" shape="" size="2"/>
			<output>
				<port id="0" precision="FP16"/>
			</output>
		</layer>
		<layer id="397" name="171617205490" type="Const" version="opset1">
			<data element_type="f16" offset="188202" shape="" size="2"/>
			<output>
				<port id="0" precision="FP16"/>
			</output>
		</layer>
		<layer id="398" name="1353412664/quantized33945583" type="Const" version="opset1">
			<data element_type="i8" offset="188204" shape="128,32,1,1" size="4096"/>
			<output>
				<port id="0" precision="I8">
					<dim>128</dim>
					<dim>32</dim>
					<dim>1</dim>
					<dim>1</dim>
				</port>
			</output>
		</layer>
		<layer id="399" name="1353412664/quantized/to_f16" type="Convert" version="opset1">
			<data destination_type="f16"/>
			<input>
				<port id="0">
					<dim>128</dim>
					<dim>32</dim>
					<dim>1</dim>
					<dim>1</dim>
				</port>
			</input>
			<output>
				<port id="1" precision="FP16">
					<dim>128</dim>
					<dim>32</dim>
					<dim>1</dim>
					<dim>1</dim>
				</port>
			</output>
		</layer>
		<layer id="400" name="fire9/expand1x1/WithoutBiases/fq_weights_1/zero_point34075316" type="Const" version="opset1">
			<data element_type="f16" offset="192300" shape="128,1,1,1" size="256"/>
			<output>
				<port id="0" precision="FP16">
					<dim>128</dim>
					<dim>1</dim>
					<dim>1</dim>
					<dim>1</dim>
				</port>
			</output>
		</layer>
		<layer id="401" name="fire9/expand1x1/WithoutBiases/fq_weights_1/minus_zp" type="Subtract" version="opset1">
			<data auto_broadcast="numpy"/>
			<input>
				<port id="0">
					<dim>128</dim>
					<dim>32</dim>
					<dim>1</dim>
					<dim>1</dim>
				</port>
				<port id="1">
					<dim>128</dim>
					<dim>1</dim>
					<dim>1</dim>
					<dim>1</dim>
				</port>
			</input>
			<output>
				<port id="2" precision="FP16">
					<dim>128</dim>
					<dim>32</dim>
					<dim>1</dim>
					<dim>1</dim>
				</port>
			</output>
		</layer>
		<layer id="402" name="fire9/expand1x1/WithoutBiases/fq_weights_1/scale34025367" type="Const" version="opset1">
			<data element_type="f16" offset="192556" shape="128,1,1,1" size="256"/>
			<output>
				<port id="0" precision="FP16">
					<dim>128</dim>
					<dim>1</dim>
					<dim>1</dim>
					<dim>1</dim>
				</port>
			</output>
		</layer>
		<layer id="403" name="fire9/expand1x1/WithoutBiases/fq_weights_1/mulpiply_by_scale" type="Multiply" version="opset1">
			<data auto_broadcast="numpy"/>
			<input>
				<port id="0">
					<dim>128</dim>
					<dim>32</dim>
					<dim>1</dim>
					<dim>1</dim>
				</port>
				<port id="1">
					<dim>128</dim>
					<dim>1</dim>
					<dim>1</dim>
					<dim>1</dim>
				</port>
			</input>
			<output>
				<port id="2" precision="FP16">
					<dim>128</dim>
					<dim>32</dim>
					<dim>1</dim>
					<dim>1</dim>
				</port>
			</output>
		</layer>
		<layer id="404" name="fire9/expand1x1/WithoutBiases" type="Convolution" version="opset1">
			<data auto_pad="explicit" dilations="1,1" pads_begin="0,0" pads_end="0,0" strides="1,1"/>
			<input>
				<port id="0">
					<dim>1</dim>
					<dim>32</dim>
					<dim>19</dim>
					<dim>19</dim>
				</port>
				<port id="1">
					<dim>128</dim>
					<dim>32</dim>
					<dim>1</dim>
					<dim>1</dim>
				</port>
			</input>
			<output>
				<port id="2" precision="FP16">
					<dim>1</dim>
					<dim>128</dim>
					<dim>19</dim>
					<dim>19</dim>
				</port>
			</output>
		</layer>
		<layer id="405" name="fire9/expand1x1/Dims15233435214" type="Const" version="opset1">
			<data element_type="f16" offset="192812" shape="1,128,1,1" size="256"/>
			<output>
				<port id="0" precision="FP16">
					<dim>1</dim>
					<dim>128</dim>
					<dim>1</dim>
					<dim>1</dim>
				</port>
			</output>
		</layer>
		<layer id="406" name="fire9/expand1x1" type="Add" version="opset1">
			<data auto_broadcast="numpy"/>
			<input>
				<port id="0">
					<dim>1</dim>
					<dim>128</dim>
					<dim>19</dim>
					<dim>19</dim>
				</port>
				<port id="1">
					<dim>1</dim>
					<dim>128</dim>
					<dim>1</dim>
					<dim>1</dim>
				</port>
			</input>
			<output>
				<port id="2" names="fire9/expand1x1" precision="FP16">
					<dim>1</dim>
					<dim>128</dim>
					<dim>19</dim>
					<dim>19</dim>
				</port>
			</output>
		</layer>
		<layer id="407" name="fire9/relu_expand1x1" type="ReLU" version="opset1">
			<input>
				<port id="0">
					<dim>1</dim>
					<dim>128</dim>
					<dim>19</dim>
					<dim>19</dim>
				</port>
			</input>
			<output>
				<port id="1" names="fire9/expand1x1" precision="FP16">
					<dim>1</dim>
					<dim>128</dim>
					<dim>19</dim>
					<dim>19</dim>
				</port>
			</output>
		</layer>
		<layer id="408" name="Concat8/fq_input_1" type="FakeQuantize" version="opset1">
			<data auto_broadcast="numpy" levels="256"/>
			<input>
				<port id="0">
					<dim>1</dim>
					<dim>128</dim>
					<dim>19</dim>
					<dim>19</dim>
				</port>
				<port id="1"/>
				<port id="2"/>
				<port id="3"/>
				<port id="4"/>
			</input>
			<output>
				<port id="5" precision="FP16">
					<dim>1</dim>
					<dim>128</dim>
					<dim>19</dim>
					<dim>19</dim>
				</port>
			</output>
		</layer>
		<layer id="409" name="Concat8" type="Concat" version="opset1">
			<data axis="1"/>
			<input>
				<port id="0">
					<dim>1</dim>
					<dim>128</dim>
					<dim>19</dim>
					<dim>19</dim>
				</port>
				<port id="1">
					<dim>1</dim>
					<dim>128</dim>
					<dim>19</dim>
…
				<port id="2" names="fc7_mbox_conf" precision="FP16">
					<dim>1</dim>
					<dim>18</dim>
					<dim>19</dim>
					<dim>19</dim>
				</port>
			</output>
		</layer>
		<layer id="508" name="158391" type="Const" version="opset1">
			<data element_type="i64" offset="537928" shape="4" size="32"/>
			<output>
				<port id="0" precision="I64">
					<dim>4</dim>
				</port>
			</output>
		</layer>
		<layer id="509" name="fc7_mbox_conf_perm" type="Transpose" version="opset1">
			<input>
				<port id="0">
					<dim>1</dim>
					<dim>18</dim>
					<dim>19</dim>
					<dim>19</dim>
				</port>
				<port id="1">
					<dim>4</dim>
				</port>
			</input>
			<output>
				<port id="2" names="fc7_mbox_conf_perm" precision="FP16">
					<dim>1</dim>
					<dim>19</dim>
					<dim>19</dim>
					<dim>18</dim>
				</port>
			</output>
		</layer>
		<layer id="510" name="165/shapes_concat3934884" type="Const" version="opset1">
			<data element_type="i64" offset="537960" shape="2" size="16"/>
			<output>
				<port id="0" precision="I64">
					<dim>2</dim>
				</port>
			</output>
		</layer>
		<layer id="511" name="fc7_mbox_conf_flat" type="Reshape" version="opset1">
			<data special_zero="true"/>
			<input>
				<port id="0">
					<dim>1</dim>
					<dim>19</dim>
					<dim>19</dim>
					<dim>18</dim>
				</port>
				<port id="1">
					<dim>2</dim>
				</port>
			</input>
			<output>
				<port id="2" names="fc7_mbox_conf_flat" precision="FP16">
					<dim>1</dim>
					<dim>6498</dim>
				</port>
			</output>
		</layer>
		<layer id="512" name="1573955661" type="Const" version="opset1">
			<data element_type="i64" offset="600292" shape="3" size="24"/>
			<output>
				<port id="0" precision="I64">
					<dim>3</dim>
				</port>
			</output>
		</layer>
		<layer id="513" name="mbox_conf_reshape" type="Reshape" version="opset1">
			<data special_zero="true"/>
			<input>
				<port id="0">
					<dim>1</dim>
					<dim>6498</dim>
				</port>
				<port id="1">
					<dim>3</dim>
				</port>
			</input>
			<output>
				<port id="2" names="mbox_conf_reshape" precision="FP16">
					<dim>1</dim>
					<dim>3249</dim>
					<dim>2</dim>
				</port>
			</output>
		</layer>
		<layer id="514" name="mbox_conf_softmax" type="SoftMax" version="opset1">
			<data axis="2"/>
			<input>
				<port id="0">
					<dim>1</dim>
					<dim>3249</dim>
					<dim>2</dim>
				</port>
			</input>
			<output>
				<port id="1" names="mbox_conf_softmax" precision="FP16">
					<dim>1</dim>
					<dim>3249</dim>
					<dim>2</dim>
				</port>
			</output>
		</layer>
		<layer id="515" name="170/shapes_concat3984983" type="Const" version="opset1">
			<data element_type="i64" offset="537960" shape="2" size="16"/>
			<output>
				<port id="0" precision="I64">
					<dim>2</dim>
				</port>
			</output>
		</layer>
		<layer id="516" name="mbox_conf_flatten" type="Reshape" version="opset1">
			<data special_zero="true"/>
			<input>
				<port id="0">
					<dim>1</dim>
					<dim>3249</dim>
					<dim>2</dim>
				</port>
				<port id="1">
					<dim>2</dim>
				</port>
			</input>
			<output>
				<port id="2" names="mbox_conf_flatten" precision="FP16">
					<dim>1</dim>
					<dim>6498</dim>
				</port>
			</output>
		</layer>
		<layer id="517" name="fc7_mbox_priorbox/0_port" type="ShapeOf" version="opset3">
			<data output_type="i64"/>
			<input>
				<port id="0">
					<dim>1</dim>
					<dim>384</dim>
					<dim>19</dim>
					<dim>19</dim>
				</port>
			</input>
			<output>
				<port id="1" precision="I64">
					<dim>4</dim>
				</port>
			</output>
		</layer>
		<layer id="518" name="fc7_mbox_priorbox/ss_begin35785897401" type="Const" version="opset1">
			<data element_type="i64" offset="600316" shape="1" size="8"/>
			<output>
				<port id="0" precision="I64">
					<dim>1</dim>
				</port>
			</output>
		</layer>
		<layer id="519" name="fc7_mbox_priorbox/ss_end35795777402" type="Const" version="opset1">
			<data element_type="i64" offset="600324" shape="1" size="8"/>
			<output>
				<port id="0" precision="I64">
					<dim>1</dim>
				</port>
			</output>
		</layer>
		<layer id="520" name="fc7_mbox_priorbox/ss_stride35805810403" type="Const" version="opset1">
			<data element_type="i64" offset="600332" shape="1" size="8"/>
			<output>
				<port id="0" precision="I64">
					<dim>1</dim>
				</port>
			</output>
		</layer>
		<layer id="521" name="fc7_mbox_priorbox/ss_0_port" type="StridedSlice" version="opset1">
			<data begin_mask="0" ellipsis_mask="0" end_mask="1" new_axis_mask="0" shrink_axis_mask="0"/>
			<input>
				<port id="0">
					<dim>4</dim>
				</port>
				<port id="1">
					<dim>1</dim>
				</port>
				<port id="2">
					<dim>1</dim>
				</port>
				<port id="3">
					<dim>1</dim>
				</port>
			</input>
			<output>
				<port id="4" precision="I64">
					<dim>2</dim>
				</port>
			</output>
		</layer>
		<layer id="522" name="fc7_mbox_priorbox/1_port" type="ShapeOf" version="opset3">
			<data output_type="i64"/>
			<input>
				<port id="0">
					<dim>1</dim>
					<dim>3</dim>
					<dim>300</dim>
					<dim>300</dim>
				</port>
			</input>
			<output>
				<port id="1" precision="I64">
					<dim>4</dim>
				</port>
			</output>
		</layer>
		<layer id="523" name="fc7_mbox_priorbox/ss_begin35785792406" type="Const" version="opset1">
			<data element_type="i64" offset="600316" shape="1" size="8"/>
			<output>
				<port id="0" precision="I64">
					<dim>1</dim>
				</port>
			</output>
		</layer>
		<layer id="524" name="fc7_mbox_priorbox/ss_end35795759407" type="Const" version="opset1">
			<data element_type="i64" offset="600324" shape="1" size="8"/>
			<output>
				<port id="0" precision="I64">
					<dim>1</dim>
				</port>
			</output>
		</layer>
		<layer id="525" name="fc7_mbox_priorbox/ss_stride35805849408" type="Const" version="opset1">
			<data element_type="i64" offset="600332" shape="1" size="8"/>
			<output>
				<port id="0" precision="I64">
					<dim>1</dim>
				</port>
			</output>
		</layer>
		<layer id="526" name="fc7_mbox_priorbox/ss_1_port" type="StridedSlice" version="opset1">
			<data begin_mask="0" ellipsis_mask="0" end_mask="1" new_axis_mask="0" shrink_axis_mask="0"/>
			<input>
				<port id="0">
					<dim>4</dim>
				</port>
				<port id="1">
					<dim>1</dim>
				</port>
				<port id="2">
					<dim>1</dim>
				</port>
				<port id="3">
					<dim>1</dim>
				</port>
			</input>
			<output>
				<port id="4" precision="I64">
					<dim>2</dim>
				</port>
			</output>
		</layer>
		<layer id="527" name="fc7_mbox_priorbox/naked_not_unsqueezed" type="PriorBoxClustered" version="opset1">
			<data clip="0" height="15,39.6,25.5,63.2,227.5,162.9,124.5,105.1,72.6" offset="0.5" step="0" step_h="16" step_w="16" variance="0.1,0.1,0.2,0.2" width="9.4,25.1,14.7,34.7,143,77.4,128.8,51.1,75.6"/>
			<input>
				<port id="0">
					<dim>2</dim>
				</port>
				<port id="1">
					<dim>2</dim>
				</port>
			</input>
			<output>
				<port id="2" precision="FP32">
					<dim>2</dim>
					<dim>12996</dim>
				</port>
			</output>
		</layer>
		<layer id="528" name="fc7_mbox_priorbox/unsqueeze/value358858134115007" type="Const" version="opset1">
			<data element_type="i64" offset="600340" shape="1" size="8"/>
			<output>
				<port id="0" precision="I64">
					<dim>1</dim>
				</port>
			</output>
		</layer>
		<layer id="529" name="fc7_mbox_priorbox" type="Unsqueeze" version="opset1">
			<input>
				<port id="0">
					<dim>2</dim>
					<dim>12996</dim>
				</port>
				<port id="1">
					<dim>1</dim>
				</port>
			</input>
			<output>
				<port id="2" names="fc7_mbox_priorbox" precision="FP32">
					<dim>1</dim>
					<dim>2</dim>
					<dim>12996</dim>
				</port>
			</output>
		</layer>
		<layer id="530" name="detection_out" type="DetectionOutput" version="opset1">
			<data background_label_id="0" clip_after_nms="false" clip_before_nms="false" code_type="caffe.PriorBoxParameter.CENTER_SIZE" confidence_threshold="0.009999999776482582" decrease_label_id="false" input_height="1" input_width="1" keep_top_k="200" nms_threshold="0.44999998807907104" normalized="true" num_classes="2" objectness_score="0" share_location="true" top_k="400" variance_encoded_in_target="false"/>
			<input>
				<port id="0">
					<dim>1</dim>
					<dim>12996</dim>
				</port>
				<port id="1">
					<dim>1</dim>
					<dim>6498</dim>
				</port>
				<port id="2">
					<dim>1</dim>
					<dim>2</dim>
					<dim>12996</dim>
				</port>
			</input>
			<output>
				<port id="3" names="detection_out" precision="FP32">
					<dim>1</dim>
					<dim>1</dim>
					<dim>200</dim>
					<dim>7</dim>
				</port>
			</output>
		</layer>
		<layer id="531" name="detection_out/sink_port_0" type="Result" version="opset1">
			<input>
				<port id="0">
					<dim>1</dim>
					<dim>1</dim>
					<dim>200</dim>
					<dim>7</dim>
				</port>
			</input>
		</layer>
	</layers>
	<edges>
		<edge from-layer="88" from-port="0" to-layer="90" to-port="0"/>
		<edge from-layer="89" from-port="0" to-layer="90" to-port="1"/>
		<edge from-layer="90" from-port="2" to-layer="92" to-port="0"/>
		<edge from-layer="91" from-port="0" to-layer="92" to-port="1"/>
		<edge from-layer="92" from-port="2" to-layer="93" to-port="0"/>
		<edge from-layer="84" from-port="0" to-layer="93" to-port="1"/>
		<edge from-layer="85" from-port="0" to-layer="93" to-port="2"/>
		<edge from-layer="86" from-port="0" to-layer="93" to-port="3"/>
		<edge from-layer="87" from-port="0" to-layer="93" to-port="4"/>
		<edge from-layer="94" from-port="0" to-layer="95" to-port="0"/>
		<edge from-layer="95" from-port="1" to-layer="97" to-port="0"/>
		<edge from-layer="96" from-port="0" to-layer="97" to-port="1"/>
		<edge from-layer="97" from-port="2" to-layer="99" to-port="0"/>
		<edge from-layer="98" from-port="0" to-layer="99" to-port="1"/>
		<edge from-layer="93" from-port="5" to-layer="100" to-port="0"/>
		<edge from-layer="99" from-port="2" to-layer="100" to-port="1"/>
		<edge from-layer="100" from-port="2" to-layer="102" to-port="0"/>
		<edge from-layer="101" from-port="0" to-layer="102" to-port="1"/>
		<edge from-layer="102" from-port="2" to-layer="103" to-port="0"/>
		<edge from-layer="103" from-port="1" to-layer="104" to-port="0"/>
		<edge from-layer="80" from-port="0" to-layer="104" to-port="1"/>
		<edge from-layer="81" from-port="0" to-layer="104" to-port="2"/>
		<edge from-layer="82" from-port="0" to-layer="104" to-port="3"/>
		<edge from-layer="83" from-port="0" to-layer="104" to-port="4"/>
		<edge from-layer="104" from-port="5" to-layer="105" to-port="0"/>
		<edge from-layer="106" from-port="0" to-layer="107" to-port="0"/>
		<edge from-layer="107" from-port="1" to-layer="109" to-port="0"/>
		<edge from-layer="108" from-port="0" to-layer="109" to-port="1"/>
		<edge from-layer="109" from-port="2" to-layer="111" to-port="0"/>
		<edge from-layer="110" from-port="0" to-layer="111" to-port="1"/>
		<edge from-layer="105" from-port="1" to-layer="112" to-port="0"/>
		<edge from-layer="111" from-port="2" to-layer="112" to-port="1"/>
		<edge from-layer="112" from-port="2" to-layer="114" to-port="0"/>
		<edge from-layer="113" from-port="0" to-layer="114" to-port="1"/>
		<edge from-layer="114" from-port="2" to-layer="115" to-port="0"/>
		<edge from-layer="115" from-port="1" to-layer="116" to-port="0"/>
		<edge from-layer="76" from-port="0" to-layer="116" to-port="1"/>
		<edge from-layer="77" from-port="0" to-layer="116" to-port="2"/>
		<edge from-layer="78" from-port="0" to-layer="116" to-port="3"/>
		<edge from-layer="79" from-port="0" to-layer="116" to-port="4"/>
		<edge from-layer="117" from-port="0" to-layer="118" to-port="0"/>
		<edge from-layer="118" from-port="1" to-layer="120" to-port="0"/>
		<edge from-layer="119" from-port="0" to-layer="120" to-port="1"/>
		<edge from-layer="120" from-port="2" to-layer="122" to-port="0"/>
		<edge from-layer="121" from-port="0" to-layer="122" to-port="1"/>
		<edge from-layer="116" from-port="5" to-layer="123" to-port="0"/>
		<edge from-layer="122" from-port="2" to-layer="123" to-port="1"/>
		<edge from-layer="123" from-port="2" to-layer="125" to-port="0"/>
		<edge from-layer="124" from-port="0" to-layer="125" to-port="1"/>
		<edge from-layer="125" from-port="2" to-layer="126" to-port="0"/>
		<edge from-layer="126" from-port="1" to-layer="127" to-port="0"/>
		<edge from-layer="72" from-port="0" to-layer="127" to-port="1"/>
		<edge from-layer="73" from-port="0" to-layer="127" to-port="2"/>
		<edge from-layer="74" from-port="0" to-layer="127" to-port="3"/>
		<edge from-layer="75" from-port="0" to-layer="127" to-port="4"/>
		<edge from-layer="132" from-port="0" to-layer="133" to-port="0"/>
		<edge from-layer="133" from-port="1" to-layer="135" to-port="0"/>
		<edge from-layer="134" from-port="0" to-layer="135" to-port="1"/>
		<edge from-layer="135" from-port="2" to-layer="137" to-port="0"/>
		<edge from-layer="136" from-port="0" to-layer="137" to-port="1"/>
		<edge from-layer="116" from-port="5" to-layer="138" to-port="0"/>
		<edge from-layer="137" from-port="2" to-layer="138" to-port="1"/>
		<edge from-layer="138" from-port="2" to-layer="140" to-port="0"/>
		<edge from-layer="139" from-port="0" to-layer="140" to-port="1"/>
		<edge from-layer="140" from-port="2" to-layer="141" to-port="0"/>
		<edge from-layer="141" from-port="1" to-layer="142" to-port="0"/>
		<edge from-layer="128" from-port="0" to-layer="142" to-port="1"/>
		<edge from-layer="129" from-port="0" to-layer="142" to-port="2"/>
		<edge from-layer="130" from-port="0" to-layer="142" to-port="3"/>
		<edge from-layer="131" from-port="0" to-layer="142" to-port="4"/>
		<edge from-layer="127" from-port="5" to-layer="143" to-port="0"/>
		<edge from-layer="142" from-port="5" to-layer="143" to-port="1"/>
		<edge from-layer="144" from-port="0" to-layer="145" to-port="0"/>
		<edge from-layer="145" from-port="1" to-layer="147" to-port="0"/>
		<edge from-layer="146" from-port="0" to-layer="147" to-port="1"/>
		<edge from-layer="147" from-port="2" to-layer="149" to-port="0"/>
		<edge from-layer="148" from-port="0" to-layer="149" to-port="1"/>
		<edge from-layer="143" from-port="2" to-layer="150" to-port="0"/>
		<edge from-layer="149" from-port="2" to-layer="150" to-port="1"/>
		<edge from-layer="150" from-port="2" to-layer="152" to-port="0"/>
		<edge from-layer="151" from-port="0" to-layer="152" to-port="1"/>
		<edge from-layer="152" from-port="2" to-layer="153" to-port="0"/>
		<edge from-layer="153" from-port="1" to-layer="154" to-port="0"/>
		<edge from-layer="68" from-port="0" to-layer="154" to-port="1"/>
		<edge from-layer="69" from-port="0" to-layer="154" to-port="2"/>
		<edge from-layer="70" from-port="0" to-layer="154" to-port="3"/>
		<edge from-layer="71" from-port="0" to-layer="154" to-port="4"/>
		<edge from-layer="155" from-port="0" to-layer="156" to-port="0"/>
		<edge from-layer="156" from-port="1" to-layer="158" to-port="0"/>
		<edge from-layer="157" from-port="0" to-layer="158" to-port="1"/>
		<edge from-layer="158" from-port="2" to-layer="160" to-port="0"/>
		<edge from-layer="159" from-port="0" to-layer="160" to-port="1"/>
		<edge from-layer="154" from-port="5" to-layer="161" to-port="0"/>
		<edge from-layer="160" from-port="2" to-layer="161" to-port="1"/>
		<edge from-layer="161" from-port="2" to-layer="163" to-port="0"/>
		<edge from-layer="162" from-port="0" to-layer="163" to-port="1"/>
		<edge from-layer="163" from-port="2" to-layer="164" to-port="0"/>
		<edge from-layer="164" from-port="1" to-layer="165" to-port="0"/>
		<edge from-layer="64" from-port="0" to-layer="165" to-port="1"/>
		<edge from-layer="65" from-port="0" to-layer="165" to-port="2"/>
		<edge from-layer="66" from-port="0" to-layer="165" to-port="3"/>
		<edge from-layer="67" from-port="0" to-layer="165" to-port="4"/>
		<edge from-layer="170" from-port="0" to-layer="171" to-port="0"/>
		<edge from-layer="171" from-port="1" to-layer="173" to-port="0"/>
		<edge from-layer="172" from-port="0" to-layer="173" to-port="1"/>
		<edge from-layer="173" from-port="2" to-layer="175" to-port="0"/>
		<edge from-layer="174" from-port="0" to-layer="175" to-port="1"/>
		<edge from-layer="154" from-port="5" to-layer="176" to-port="0"/>
		<edge from-layer="175" from-port="2" to-layer="176" to-port="1"/>
		<edge from-layer="176" from-port="2" to-layer="178" to-port="0"/>
		<edge from-layer="177" from-port="0" to-layer="178" to-port="1"/>
		<edge from-layer="178" from-port="2" to-layer="179" to-port="0"/>
		<edge from-layer="179" from-port="1" to-layer="180" to-port="0"/>
		<edge from-layer="166" from-port="0" to-layer="180" to-port="1"/>
		<edge from-layer="167" from-port="0" to-layer="180" to-port="2"/>
		<edge from-layer="168" from-port="0" to-layer="180" to-port="3"/>
		<edge from-layer="169" from-port="0" to-layer="180" to-port="4"/>
		<edge from-layer="165" from-port="5" to-layer="181" to-port="0"/>
		<edge from-layer="180" from-port="5" to-layer="181" to-port="1"/>
		<edge from-layer="182" from-port="0" to-layer="183" to-port="0"/>
		<edge from-layer="183" from-port="1" to-layer="185" to-port="0"/>
		<edge from-layer="184" from-port="0" to-layer="185" to-port="1"/>
		<edge from-layer="185" from-port="2" to-layer="187" to-port="0"/>
		<edge from-layer="186" from-port="0" to-layer="187" to-port="1"/>
		<edge from-layer="181" from-port="2" to-layer="188" to-port="0"/>
		<edge from-layer="187" from-port="2" to-layer="188" to-port="1"/>
		<edge from-layer="188" from-port="2" to-layer="190" to-port="0"/>
		<edge from-layer="189" from-port="0" to-layer="190" to-port="1"/>
		<edge from-layer="190" from-port="2" to-layer="191" to-port="0"/>
		<edge from-layer="191" from-port="1" to-layer="192" to-port="0"/>
		<edge from-layer="60" from-port="0" to-layer="192" to-port="1"/>
		<edge from-layer="61" from-port="0" to-layer="192" to-port="2"/>
		<edge from-layer="62" from-port="0" to-layer="192" to-port="3"/>
		<edge from-layer="63" from-port="0" to-layer="192" to-port="4"/>
		<edge from-layer="193" from-port="0" to-layer="194" to-port="0"/>
		<edge from-layer="194" from-port="1" to-layer="196" to-port="0"/>
		<edge from-layer="195" from-port="0" to-layer="196" to-port="1"/>
		<edge from-layer="196" from-port="2" to-layer="198" to-port="0"/>
		<edge from-layer="197" from-port="0" to-layer="198" to-port="1"/>
		<edge from-layer="192" from-port="5" to-layer="199" to-port="0"/>
		<edge from-layer="198" from-port="2" to-layer="199" to-port="1"/>
		<edge from-layer="199" from-port="2" to-layer="201" to-port="0"/>
		<edge from-layer="200" from-port="0" to-layer="201" to-port="1"/>
		<edge from-layer="201" from-port="2" to-layer="202" to-port="0"/>
		<edge from-layer="202" from-port="1" to-layer="203" to-port="0"/>
		<edge from-layer="56" from-port="0" to-layer="203" to-port="1"/>
		<edge from-layer="57" from-port="0" to-layer="203" to-port="2"/>
		<edge from-layer="58" from-port="0" to-layer="203" to-port="3"/>
		<edge from-layer="59" from-port="0" to-layer="203" to-port="4"/>
		<edge from-layer="208" from-port="0" to-layer="209" to-port="0"/>
		<edge from-layer="209" from-port="1" to-layer="211" to-port="0"/>
		<edge from-layer="210" from-port="0" to-layer="211" to-port="1"/>
		<edge from-layer="211" from-port="2" to-layer="213" to-port="0"/>
		<edge from-layer="212" from-port="0" to-layer="213" to-port="1"/>
		<edge from-layer="192" from-port="5" to-layer="214" to-port="0"/>
		<edge from-layer="213" from-port="2" to-layer="214" to-port="1"/>
		<edge from-layer="214" from-port="2" to-layer="216" to-port="0"/>
		<edge from-layer="215" from-port="0" to-layer="216" to-port="1"/>
		<edge from-layer="216" from-port="2" to-layer="217" to-port="0"/>
		<edge from-layer="217" from-port="1" to-layer="218" to-port="0"/>
		<edge from-layer="204" from-port="0" to-layer="218" to-port="1"/>
		<edge from-layer="205" from-port="0" to-layer="218" to-port="2"/>
		<edge from-layer="206" from-port="0" to-layer="218" to-port="3"/>
		<edge from-layer="207" from-port="0" to-layer="218" to-port="4"/>
		<edge from-layer="203" from-port="5" to-layer="219" to-port="0"/>
		<edge from-layer="218" from-port="5" to-layer="219" to-port="1"/>
		<edge from-layer="220" from-port="0" to-layer="221" to-port="0"/>
		<edge from-layer="221" from-port="1" to-layer="223" to-port="0"/>
		<edge from-layer="222" from-port="0" to-layer="223" to-port="1"/>
		<edge from-layer="223" from-port="2" to-layer="225" to-port="0"/>
		<edge from-layer="224" from-port="0" to-layer="225" to-port="1"/>
		<edge from-layer="219" from-port="2" to-layer="226" to-port="0"/>
		<edge from-layer="225" from-port="2" to-layer="226" to-port="1"/>
		<edge from-layer="226" from-port="2" to-layer="228" to-port="0"/>
		<edge from-layer="227" from-port="0" to-layer="228" to-port="1"/>
		<edge from-layer="228" from-port="2" to-layer="229" to-port="0"/>
		<edge from-layer="229" from-port="1" to-layer="230" to-port="0"/>
		<edge from-layer="52" from-port="0" to-layer="230" to-port="1"/>
		<edge from-layer="53" from-port="0" to-layer="230" to-port="2"/>
		<edge from-layer="54" from-port="0" to-layer="230" to-port="3"/>
		<edge from-layer="55" from-port="0" to-layer="230" to-port="4"/>
		<edge from-layer="231" from-port="0" to-layer="232" to-port="0"/>
		<edge from-layer="232" from-port="1" to-layer="234" to-port="0"/>
		<edge from-layer="233" from-port="0" to-layer="234" to-port="1"/>
		<edge from-layer="234" from-port="2" to-layer="236" to-port="0"/>
		<edge from-layer="235" from-port="0" to-layer="236" to-port="1"/>
		<edge from-layer="230" from-port="5" to-layer="237" to-port="0"/>
		<edge from-layer="236" from-port="2" to-layer="237" to-port="1"/>
		<edge from-layer="237" from-port="2" to-layer="239" to-port="0"/>
		<edge from-layer="238" from-port="0" to-layer="239" to-port="1"/>
		<edge from-layer="239" from-port="2" to-layer="240" to-port="0"/>
		<edge from-layer="240" from-port="1" to-layer="241" to-port="0"/>
		<edge from-layer="48" from-port="0" to-layer="241" to-port="1"/>
		<edge from-layer="49" from-port="0" to-layer="241" to-port="2"/>
		<edge from-layer="50" from-port="0" to-layer="241" to-port="3"/>
		<edge from-layer="51" from-port="0" to-layer="241" to-port="4"/>
		<edge from-layer="246" from-port="0" to-layer="247" to-port="0"/>
		<edge from-layer="247" from-port="1" to-layer="249" to-port="0"/>
		<edge from-layer="248" from-port="0" to-layer="249" to-port="1"/>
		<edge from-layer="249" from-port="2" to-layer="251" to-port="0"/>
		<edge from-layer="250" from-port="0" to-layer="251" to-port="1"/>
		<edge from-layer="230" from-port="5" to-layer="252" to-port="0"/>
		<edge from-layer="251" from-port="2" to-layer="252" to-port="1"/>
		<edge from-layer="252" from-port="2" to-layer="254" to-port="0"/>
		<edge from-layer="253" from-port="0" to-layer="254" to-port="1"/>
		<edge from-layer="254" from-port="2" to-layer="255" to-port="0"/>
		<edge from-layer="255" from-port="1" to-layer="256" to-port="0"/>
		<edge from-layer="242" from-port="0" to-layer="256" to-port="1"/>
		<edge from-layer="243" from-port="0" to-layer="256" to-port="2"/>
		<edge from-layer="244" from-port="0" to-layer="256" to-port="3"/>
		<edge from-layer="245" from-port="0" to-layer="256" to-port="4"/>
		<edge from-layer="241" from-port="5" to-layer="257" to-port="0"/>
		<edge from-layer="256" from-port="5" to-layer="257" to-port="1"/>
		<edge from-layer="258" from-port="0" to-layer="259" to-port="0"/>
		<edge from-layer="259" from-port="1" to-layer="261" to-port="0"/>
		<edge from-layer="260" from-port="0" to-layer="261" to-port="1"/>
		<edge from-layer="261" from-port="2" to-layer="263" to-port="0"/>
		<edge from-layer="262" from-port="0" to-layer="263" to-port="1"/>
		<edge from-layer="257" from-port="2" to-layer="264" to-port="0"/>
		<edge from-layer="263" from-port="2" to-layer="264" to-port="1"/>
		<edge from-layer="264" from-port="2" to-layer="266" to-port="0"/>
		<edge from-layer="265" from-port="0" to-layer="266" to-port="1"/>
		<edge from-layer="266" from-port="2" to-layer="267" to-port="0"/>
		<edge from-layer="267" from-port="1" to-layer="268" to-port="0"/>
		<edge from-layer="44" from-port="0" to-layer="268" to-port="1"/>
		<edge from-layer="45" from-port="0" to-layer="268" to-port="2"/>
		<edge from-layer="46" from-port="0" to-layer="268" to-port="3"/>
		<edge from-layer="47" from-port="0" to-layer="268" to-port="4"/>
		<edge from-layer="269" from-port="0" to-layer="270" to-port="0"/>
		<edge from-layer="270" from-port="1" to-layer="272" to-port="0"/>
		<edge from-layer="271" from-port="0" to-layer="272" to-port="1"/>
		<edge from-layer="272" from-port="2" to-layer="274" to-port="0"/>
		<edge from-layer="273" from-port="0" to-layer="274" to-port="1"/>
		<edge from-layer="268" from-port="5" to-layer="275" to-port="0"/>
		<edge from-layer="274" from-port="2" to-layer="275" to-port="1"/>
		<edge from-layer="275" from-port="2" to-layer="277" to-port="0"/>
		<edge from-layer="276" from-port="0" to-layer="277" to-port="1"/>
		<edge from-layer="277" from-port="2" to-layer="278" to-port="0"/>
		<edge from-layer="278" from-port="1" to-layer="279" to-port="0"/>
		<edge from-layer="40" from-port="0" to-layer="279" to-port="1"/>
		<edge from-layer="41" from-port="0" to-layer="279" to-port="2"/>
		<edge from-layer="42" from-port="0" to-layer="279" to-port="3"/>
		<edge from-layer="43" from-port="0" to-layer="279" to-port="4"/>
		<edge from-layer="284" from-port="0" to-layer="285" to-port="0"/>
		<edge from-layer="285" from-port="1" to-layer="287" to-port="0"/>
		<edge from-layer="286" from-port="0" to-layer="287" to-port="1"/>
		<edge from-layer="287" from-port="2" to-layer="289" to-port="0"/>
		<edge from-layer="288" from-port="0" to-layer="289" to-port="1"/>
		<edge from-layer="268" from-port="5" to-layer="290" to-port="0"/>
		<edge from-layer="289" from-port="2" to-layer="290" to-port="1"/>
		<edge from-layer="290" from-port="2" to-layer="292" to-port="0"/>
		<edge from-layer="291" from-port="0" to-layer="292" to-port="1"/>
		<edge from-layer="292" from-port="2" to-layer="293" to-port="0"/>
		<edge from-layer="293" from-port="1" to-layer="294" to-port="0"/>
		<edge from-layer="280" from-port="0" to-layer="294" to-port="1"/>
		<edge from-layer="281" from-port="0" to-layer="294" to-port="2"/>
		<edge from-layer="282" from-port="0" to-layer="294" to-port="3"/>
		<edge from-layer="283" from-port="0" to-layer="294" to-port="4"/>
		<edge from-layer="279" from-port="5" to-layer="295" to-port="0"/>
		<edge from-layer="294" from-port="5" to-layer="295" to-port="1"/>
		<edge from-layer="296" from-port="0" to-layer="297" to-port="0"/>
		<edge from-layer="297" from-port="1" to-layer="299" to-port="0"/>
		<edge from-layer="298" from-port="0" to-layer="299" to-port="1"/>
		<edge from-layer="299" from-port="2" to-layer="301" to-port="0"/>
		<edge from-layer="300" from-port="0" to-layer="301" to-port="1"/>
		<edge from-layer="295" from-port="2" to-layer="302" to-port="0"/>
		<edge from-layer="301" from-port="2" to-layer="302" to-port="1"/>
		<edge from-layer="302" from-port="2" to-layer="304" to-port="0"/>
		<edge from-layer="303" from-port="0" to-layer="304" to-port="1"/>
		<edge from-layer="304" from-port="2" to-layer="305" to-port="0"/>
		<edge from-layer="305" from-port="1" to-layer="306" to-port="0"/>
		<edge from-layer="36" from-port="0" to-layer="306" to-port="1"/>
		<edge from-layer="37" from-port="0" to-layer="306" to-port="2"/>
		<edge from-layer="38" from-port="0" to-layer="306" to-port="3"/>
		<edge from-layer="39" from-port="0" to-layer="306" to-port="4"/>
		<edge from-layer="307" from-port="0" to-layer="308" to-port="0"/>
		<edge from-layer="308" from-port="1" to-layer="310" to-port="0"/>
		<edge from-layer="309" from-port="0" to-layer="310" to-port="1"/>
		<edge from-layer="310" from-port="2" to-layer="312" to-port="0"/>
		<edge from-layer="311" from-port="0" to-layer="312" to-port="1"/>
		<edge from-layer="306" from-port="5" to-layer="313" to-port="0"/>
		<edge from-layer="312" from-port="2" to-layer="313" to-port="1"/>
		<edge from-layer="313" from-port="2" to-layer="315" to-port="0"/>
		<edge from-layer="314" from-port="0" to-layer="315" to-port="1"/>
		<edge from-layer="315" from-port="2" to-layer="316" to-port="0"/>
		<edge from-layer="316" from-port="1" to-layer="317" to-port="0"/>
		<edge from-layer="32" from-port="0" to-layer="317" to-port="1"/>
		<edge from-layer="33" from-port="0" to-layer="317" to-port="2"/>
		<edge from-layer="34" from-port="0" to-layer="317" to-port="3"/>
		<edge from-layer="35" from-port="0" to-layer="317" to-port="4"/>
		<edge from-layer="322" from-port="0" to-layer="323" to-port="0"/>
		<edge from-layer="323" from-port="1" to-layer="325" to-port="0"/>
		<edge from-layer="324" from-port="0" to-layer="325" to-port="1"/>
		<edge from-layer="325" from-port="2" to-layer="327" to-port="0"/>
		<edge from-layer="326" from-port="0" to-layer="327" to-port="1"/>
		<edge from-layer="306" from-port="5" to-layer="328" to-port="0"/>
		<edge from-layer="327" from-port="2" to-layer="328" to-port="1"/>
		<edge from-layer="328" from-port="2" to-layer="330" to-port="0"/>
		<edge from-layer="329" from-port="0" to-layer="330" to-port="1"/>
		<edge from-layer="330" from-port="2" to-layer="331" to-port="0"/>
		<edge from-layer="331" from-port="1" to-layer="332" to-port="0"/>
		<edge from-layer="318" from-port="0" to-layer="332" to-port="1"/>
		<edge from-layer="319" from-port="0" to-layer="332" to-port="2"/>
		<edge from-layer="320" from-port="0" to-layer="332" to-port="3"/>
		<edge from-layer="321" from-port="0" to-layer="332" to-port="4"/>
		<edge from-layer="317" from-port="5" to-layer="333" to-port="0"/>
		<edge from-layer="332" from-port="5" to-layer="333" to-port="1"/>
		<edge from-layer="334" from-port="0" to-layer="335" to-port="0"/>
		<edge from-layer="335" from-port="1" to-layer="337" to-port="0"/>
		<edge from-layer="336" from-port="0" to-layer="337" to-port="1"/>
		<edge from-layer="337" from-port="2" to-layer="339" to-port="0"/>
		<edge from-layer="338" from-port="0" to-layer="339" to-port="1"/>
		<edge from-layer="333" from-port="2" to-layer="340" to-port="0"/>
		<edge from-layer="339" from-port="2" to-layer="340" to-port="1"/>
		<edge from-layer="340" from-port="2" to-layer="342" to-port="0"/>
		<edge from-layer="341" from-port="0" to-layer="342" to-port="1"/>
		<edge from-layer="342" from-port="2" to-layer="343" to-port="0"/>
		<edge from-layer="343" from-port="1" to-layer="344" to-port="0"/>
		<edge from-layer="28" from-port="0" to-layer="344" to-port="1"/>
		<edge from-layer="29" from-port="0" to-layer="344" to-port="2"/>
		<edge from-layer="30" from-port="0" to-layer="344" to-port="3"/>
		<edge from-layer="31" from-port="0" to-layer="344" to-port="4"/>
		<edge from-layer="345" from-port="0" to-layer="346" to-port="0"/>
		<edge from-layer="346" from-port="1" to-layer="348" to-port="0"/>
		<edge from-layer="347" from-port="0" to-layer="348" to-port="1"/>
		<edge from-layer="348" from-port="2" to-layer="350" to-port="0"/>
		<edge from-layer="349" from-port="0" to-layer="350" to-port="1"/>
		<edge from-layer="344" from-port="5" to-layer="351" to-port="0"/>
		<edge from-layer="350" from-port="2" to-layer="351" to-port="1"/>
		<edge from-layer="351" from-port="2" to-layer="353" to-port="0"/>
		<edge from-layer="352" from-port="0" to-layer="353" to-port="1"/>
		<edge from-layer="353" from-port="2" to-layer="354" to-port="0"/>
		<edge from-layer="354" from-port="1" to-layer="355" to-port="0"/>
		<edge from-layer="24" from-port="0" to-layer="355" to-port="1"/>
		<edge from-layer="25" from-port="0" to-layer="355" to-port="2"/>
		<edge from-layer="26" from-port="0" to-layer="355" to-port="3"/>
		<edge from-layer="27" from-port="0" to-layer="355" to-port="4"/>
		<edge from-layer="360" from-port="0" to-layer="361" to-port="0"/>
		<edge from-layer="361" from-port="1" to-layer="363" to-port="0"/>
		<edge from-layer="362" from-port="0" to-layer="363" to-port="1"/>
		<edge from-layer="363" from-port="2" to-layer="365" to-port="0"/>
		<edge from-layer="364" from-port="0" to-layer="365" to-port="1"/>
		<edge from-layer="344" from-port="5" to-layer="366" to-port="0"/>
		<edge from-layer="365" from-port="2" to-layer="366" to-port="1"/>
		<edge from-layer="366" from-port="2" to-layer="368" to-port="0"/>
		<edge from-layer="367" from-port="0" to-layer="368" to-port="1"/>
		<edge from-layer="368" from-port="2" to-layer="369" to-port="0"/>
		<edge from-layer="369" from-port="1" to-layer="370" to-port="0"/>
		<edge from-layer="356" from-port="0" to-layer="370" to-port="1"/>
		<edge from-layer="357" from-port="0" to-layer="370" to-port="2"/>
		<edge from-layer="358" from-port="0" to-layer="370" to-port="3"/>
		<edge from-layer="359" from-port="0" to-layer="370" to-port="4"/>
		<edge from-layer="355" from-port="5" to-layer="371" to-port="0"/>
		<edge from-layer="370" from-port="5" to-layer="371" to-port="1"/>
		<edge from-layer="372" from-port="0" to-layer="373" to-port="0"/>
		<edge from-layer="373" from-port="1" to-layer="375" to-port="0"/>
		<edge from-layer="374" from-port="0" to-layer="375" to-port="1"/>
		<edge from-layer="375" from-port="2" to-layer="377" to-port="0"/>
		<edge from-layer="376" from-port="0" to-layer="377" to-port="1"/>
		<edge from-layer="371" from-port="2" to-layer="378" to-port="0"/>
		<edge from-layer="377" from-port="2" to-layer="378" to-port="1"/>
		<edge from-layer="378" from-port="2" to-layer="380" to-port="0"/>
		<edge from-layer="379" from-port="0" to-layer="380" to-port="1"/>
		<edge from-layer="380" from-port="2" to-layer="381" to-port="0"/>
		<edge from-layer="381" from-port="1" to-layer="382" to-port="0"/>
		<edge from-layer="20" from-port="0" to-layer="382" to-port="1"/>
		<edge from-layer="21" from-port="0" to-layer="382" to-port="2"/>
		<edge from-layer="22" from-port="0" to-layer="382" to-port="3"/>
		<edge from-layer="23" from-port="0" to-layer="382" to-port="4"/>
		<edge from-layer="383" from-port="0" to-layer="384" to-port="0"/>
		<edge from-layer="384" from-port="1" to-layer="386" to-port="0"/>
		<edge from-layer="385" from-port="0" to-layer="386" to-port="1"/>
		<edge from-layer="386" from-port="2" to-layer="388" to-port="0"/>
		<edge from-layer="387" from-port="0" to-layer="388" to-port="1"/>
		<edge from-layer="382" from-port="5" to-layer="389" to-port="0"/>
		<edge from-layer="388" from-port="2" to-layer="389" to-port="1"/>
		<edge from-layer="389" from-port="2" to-layer="391" to-port="0"/>
		<edge from-layer="390" from-port="0" to-layer="391" to-port="1"/>
		<edge from-layer="391" from-port="2" to-layer="392" to-port="0"/>
		<edge from-layer="392" from-port="1" to-layer="393" to-port="0"/>
		<edge from-layer="16" from-port="0" to-layer="393" to-port="1"/>
		<edge from-layer="17" from-port="0" to-layer="393" to-port="2"/>
		<edge from-layer="18" from-port="0" to-layer="393" to-port="3"/>
		<edge from-layer="19" from-port="0" to-layer="393" to-port="4"/>
		<edge from-layer="398" from-port="0" to-layer="399" to-port="0"/>
		<edge from-layer="399" from-port="1" to-layer="401" to-port="0"/>
		<edge from-layer="400" from-port="0" to-layer="401" to-port="1"/>
		<edge from-layer="401" from-port="2" to-layer="403" to-port="0"/>
		<edge from-layer="402" from-port="0" to-layer="403" to-port="1"/>
		<edge from-layer="382" from-port="5" to-layer="404" to-port="0"/>
		<edge from-layer="403" from-port="2" to-layer="404" to-port="1"/>
		<edge from-layer="404" from-port="2" to-layer="406" to-port="0"/>
		<edge from-layer="405" from-port="0" to-layer="406" to-port="1"/>
		<edge from-layer="406" from-port="2" to-layer="407" to-port="0"/>
		<edge from-layer="407" from-port="1" to-layer="408" to-port="0"/>
		<edge from-layer="394" from-port="0" to-layer="408" to-port="1"/>
		<edge from-layer="395" from-port="0" to-layer="408" to-port="2"/>
		<edge from-layer="396" from-port="0" to-layer="408" to-port="3"/>
		<edge from-layer="397" from-port="0" to-layer="408" to-port="4"/>
		<edge from-layer="393" from-port="5" to-layer="409" to-port="0"/>
		<edge from-layer="408" from-port="5" to-layer="409" to-port="1"/>
		<edge from-layer="410" from-port="0" to-layer="411" to-port="0"/>
		<edge from-layer="411" from-port="1" to-layer="413" to-port="0"/>
		<edge from-layer="412" from-port="0" to-layer="413" to-port="1"/>
		<edge from-layer="413" from-port="2" to-layer="415" to-port="0"/>
		<edge from-layer="414" from-port="0" to-layer="415" to-port="1"/>
		<edge from-layer="409" from-port="2" to-layer="416" to-port="0"/>
		<edge from-layer="415" from-port="2" to-layer="416" to-port="1"/>
		<edge from-layer="416" from-port="2" to-layer="418" to-port="0"/>
		<edge from-layer="417" from-port="0" to-layer="418" to-port="1"/>
		<edge from-layer="418" from-port="2" to-layer="419" to-port="0"/>
		<edge from-layer="419" from-port="1" to-layer="420" to-port="0"/>
		<edge from-layer="12" from-port="0" to-layer="420" to-port="1"/>
		<edge from-layer="13" from-port="0" to-layer="420" to-port="2"/>
		<edge from-layer="14" from-port="0" to-layer="420" to-port="3"/>
		<edge from-layer="15" from-port="0" to-layer="420" to-port="4"/>
		<edge from-layer="421" from-port="0" to-layer="422" to-port="0"/>
		<edge from-layer="422" from-port="1" to-layer="424" to-port="0"/>
		<edge from-layer="423" from-port="0" to-layer="424" to-port="1"/>
		<edge from-layer="424" from-port="2" to-layer="426" to-port="0"/>
		<edge from-layer="425" from-port="0" to-layer="426" to-port="1"/>
		<edge from-layer="420" from-port="5" to-layer="427" to-port="0"/>
		<edge from-layer="426" from-port="2" to-layer="427" to-port="1"/>
		<edge from-layer="427" from-port="2" to-layer="429" to-port="0"/>
		<edge from-layer="428" from-port="0" to-layer="429" to-port="1"/>
		<edge from-layer="429" from-port="2" to-layer="430" to-port="0"/>
		<edge from-layer="430" from-port="1" to-layer="431" to-port="0"/>
		<edge from-layer="8" from-port="0" to-layer="431" to-port="1"/>
		<edge from-layer="9" from-port="0" to-layer="431" to-port="2"/>
		<edge from-layer="10" from-port="0" to-layer="431" to-port="3"/>
		<edge from-layer="11" from-port="0" to-layer="431" to-port="4"/>
		<edge from-layer="436" from-port="0" to-layer="437" to-port="0"/>
		<edge from-layer="437" from-port="1" to-layer="439" to-port="0"/>
		<edge from-layer="438" from-port="0" to-layer="439" to-port="1"/>
		<edge from-layer="439" from-port="2" to-layer="441" to-port="0"/>
		<edge from-layer="440" from-port="0" to-layer="441" to-port="1"/>
		<edge from-layer="420" from-port="5" to-layer="442" to-port="0"/>
		<edge from-layer="441" from-port="2" to-layer="442" to-port="1"/>
		<edge from-layer="442" from-port="2" to-layer="444" to-port="0"/>
		<edge from-layer="443" from-port="0" to-layer="444" to-port="1"/>
		<edge from-layer="444" from-port="2" to-layer="445" to-port="0"/>
		<edge from-layer="445" from-port="1" to-layer="446" to-port="0"/>
		<edge from-layer="432" from-port="0" to-layer="446" to-port="1"/>
		<edge from-layer="433" from-port="0" to-layer="446" to-port="2"/>
		<edge from-layer="434" from-port="0" to-layer="446" to-port="3"/>
		<edge from-layer="435" from-port="0" to-layer="446" to-port="4"/>
		<edge from-layer="431" from-port="5" to-layer="447" to-port="0"/>
		<edge from-layer="446" from-port="5" to-layer="447" to-port="1"/>
		<edge from-layer="448" from-port="0" to-layer="449" to-port="0"/>
		<edge from-layer="449" from-port="1" to-layer="451" to-port="0"/>
		<edge from-layer="450" from-port="0" to-layer="451" to-port="1"/>
		<edge from-layer="451" from-port="2" to-layer="453" to-port="0"/>
		<edge from-layer="452" from-port="0" to-layer="453" to-port="1"/>
		<edge from-layer="447" from-port="2" to-layer="454" to-port="0"/>
		<edge from-layer="453" from-port="2" to-layer="454" to-port="1"/>
		<edge from-layer="454" from-port="2" to-layer="456" to-port="0"/>
		<edge from-layer="455" from-port="0" to-layer="456" to-port="1"/>
		<edge from-layer="456" from-port="2" to-layer="457" to-port="0"/>
		<edge from-layer="457" from-port="1" to-layer="458" to-port="0"/>
		<edge from-layer="4" from-port="0" to-layer="458" to-port="1"/>
		<edge from-layer="5" from-port="0" to-layer="458" to-port="2"/>
		<edge from-layer="6" from-port="0" to-layer="458" to-port="3"/>
		<edge from-layer="7" from-port="0" to-layer="458" to-port="4"/>
		<edge from-layer="459" from-port="0" to-layer="460" to-port="0"/>
		<edge from-layer="460" from-port="1" to-layer="462" to-port="0"/>
		<edge from-layer="461" from-port="0" to-layer="462" to-port="1"/>
		<edge from-layer="462" from-port="2" to-layer="464" to-port="0"/>
		<edge from-layer="463" from-port="0" to-layer="464" to-port="1"/>
		<edge from-layer="458" from-port="5" to-layer="465" to-port="0"/>
		<edge from-layer="464" from-port="2" to-layer="465" to-port="1"/>
		<edge from-layer="465" from-port="2" to-layer="467" to-port="0"/>
		<edge from-layer="466" from-port="0" to-layer="467" to-port="1"/>
		<edge from-layer="467" from-port="2" to-layer="468" to-port="0"/>
		<edge from-layer="468" from-port="1" to-layer="469" to-port="0"/>
		<edge from-layer="0" from-port="0" to-layer="469" to-port="1"/>
		<edge from-layer="1" from-port="0" to-layer="469" to-port="2"/>
		<edge from-layer="2" from-port="0" to-layer="469" to-port="3"/>
		<edge from-layer="3" from-port="0" to-layer="469" to-port="4"/>
		<edge from-layer="474" from-port="0" to-layer="475" to-port="0"/>
		<edge from-layer="475" from-port="1" to-layer="477" to-port="0"/>
		<edge from-layer="476" from-port="0" to-layer="477" to-port="1"/>
		<edge from-layer="477" from-port="2" to-layer="479" to-port="0"/>
		<edge from-layer="478" from-port="0" to-layer="479" to-port="1"/>
		<edge from-layer="458" from-port="5" to-layer="480" to-port="0"/>
		<edge from-layer="479" from-port="2" to-layer="480" to-port="1"/>
		<edge from-layer="480" from-port="2" to-layer="482" to-port="0"/>
		<edge from-layer="481" from-port="0" to-layer="482" to-port="1"/>
		<edge from-layer="482" from-port="2" to-layer="483" to-port="0"/>
		<edge from-layer="483" from-port="1" to-layer="484" to-port="0"/>
		<edge from-layer="470" from-port="0" to-layer="484" to-port="1"/>
		<edge from-layer="471" from-port="0" to-layer="484" to-port="2"/>
		<edge from-layer="472" from-port="0" to-layer="484" to-port="3"/>
		<edge from-layer="473" from-port="0" to-layer="484" to-port="4"/>
		<edge from-layer="484" from-port="5" to-layer="485" to-port="0"/>
		<edge from-layer="469" from-port="5" to-layer="485" to-port="1"/>
		<edge from-layer="486" from-port="0" to-layer="487" to-port="0"/>
		<edge from-layer="487" from-port="1" to-layer="489" to-port="0"/>
		<edge from-layer="488" from-port="0" to-layer="489" to-port="1"/>
		<edge from-layer="489" from-port="2" to-layer="491" to-port="0"/>
		<edge from-layer="490" from-port="0" to-layer="491" to-port="1"/>
		<edge from-layer="485" from-port="2" to-layer="492" to-port="0"/>
		<edge from-layer="491" from-port="2" to-layer="492" to-port="1"/>
		<edge from-layer="492" from-port="2" to-layer="494" to-port="0"/>
		<edge from-layer="493" from-port="0" to-layer="494" to-port="1"/>
		<edge from-layer="494" from-port="2" to-layer="496" to-port="0"/>
		<edge from-layer="495" from-port="0" to-layer="496" to-port="1"/>
		<edge from-layer="496" from-port="2" to-layer="498" to-port="0"/>
		<edge from-layer="497" from-port="0" to-layer="498" to-port="1"/>
		<edge from-layer="499" from-port="0" to-layer="500" to-port="0"/>
		<edge from-layer="500" from-port="1" to-layer="502" to-port="0"/>
		<edge from-layer="501" from-port="0" to-layer="502" to-port="1"/>
		<edge from-layer="502" from-port="2" to-layer="504" to-port="0"/>
		<edge from-layer="503" from-port="0" to-layer="504" to-port="1"/>
		<edge from-layer="485" from-port="2" to-layer="505" to-port="0"/>
		<edge from-layer="504" from-port="2" to-layer="505" to-port="1"/>
		<edge from-layer="505" from-port="2" to-layer="507" to-port="0"/>
		<edge from-layer="506" from-port="0" to-layer="507" to-port="1"/>
		<edge from-layer="507" from-port="2" to-layer="509" to-port="0"/>
		<edge from-layer="508" from-port="0" to-layer="509" to-port="1"/>
		<edge from-layer="509" from-port="2" to-layer="511" to-port="0"/>
		<edge from-layer="510" from-port="0" to-layer="511" to-port="1"/>
		<edge from-layer="511" from-port="2" to-layer="513" to-port="0"/>
		<edge from-layer="512" from-port="0" to-layer="513" to-port="1"/>
		<edge from-layer="513" from-port="2" to-layer="514" to-port="0"/>
		<edge from-layer="514" from-port="1" to-layer="516" to-port="0"/>
		<edge from-layer="515" from-port="0" to-layer="516" to-port="1"/>
		<edge from-layer="485" from-port="2" to-layer="517" to-port="0"/>
		<edge from-layer="517" from-port="1" to-layer="521" to-port="0"/>
		<edge from-layer="518" from-port="0" to-layer="521" to-port="1"/>
		<edge from-layer="519" from-port="0" to-layer="521" to-port="2"/>
		<edge from-layer="520" from-port="0" to-layer="521" to-port="3"/>
		<edge from-layer="92" from-port="2" to-layer="522" to-port="0"/>
		<edge from-layer="522" from-port="1" to-layer="526" to-port="0"/>
		<edge from-layer="523" from-port="0" to-layer="526" to-port="1"/>
		<edge from-layer="524" from-port="0" to-layer="526" to-port="2"/>
		<edge from-layer="525" from-port="0" to-layer="526" to-port="3"/>
		<edge from-layer="521" from-port="4" to-layer="527" to-port="0"/>
		<edge from-layer="526" from-port="4" to-layer="527" to-port="1"/>
		<edge from-layer="527" from-port="2" to-layer="529" to-port="0"/>
		<edge from-layer="528" from-port="0" to-layer="529" to-port="1"/>
		<edge from-layer="498" from-port="2" to-layer="530" to-port="0"/>
		<edge from-layer="516" from-port="2" to-layer="530" to-port="1"/>
		<edge from-layer="529" from-port="2" to-layer="530" to-port="2"/>
		<edge from-layer="530" from-port="3" to-layer="531" to-port="0"/>
	</edges>
	<meta_data>
		<MO_version value="custom_HEAD_149c43044cb1e8ed8cd4f3f196b23f7b3f129a36"/>
		<cli_parameters>
			<caffe_parser_path value="DIR"/>
			<data_type value="FP16"/>
			<disable_nhwc_to_nchw value="False"/>
			<disable_omitting_optional value="False"/>
			<disable_resnet_optimization value="False"/>
			<disable_weights_compression value="False"/>
			<enable_concat_optimization value="False"/>
			<enable_flattening_nested_params value="False"/>
			<enable_ssd_gluoncv value="False"/>
			<extensions value="DIR"/>
			<framework value="caffe"/>
			<freeze_placeholder_with_value value="{}"/>
			<generate_deprecated_IR_V7 value="False"/>
			<input value="data"/>
			<input_model value="DIR/cnn_fd_004_sq_light_ssd.caffemodel"/>
			<input_model_is_text value="False"/>
			<input_proto value="DIR/cnn_fd_004_sq_light_ssd.prototxt"/>
			<input_shape value="[1,3,300,300]"/>
			<k value="DIR/CustomLayersMapping.xml"/>
			<keep_shape_ops value="True"/>
			<legacy_ir_generation value="False"/>
			<legacy_mxnet_model value="False"/>
			<log_level value="ERROR"/>
			<mean_scale_values value="{}"/>
			<mean_values value="()"/>
			<model_name value="face-detection-retail-0004"/>
			<output value="['detection_out']"/>
			<output_dir value="DIR"/>
			<placeholder_data_types value="{}"/>
			<placeholder_shapes value="{'data': array([  1,   3, 300, 300])}"/>
			<progress value="False"/>
			<remove_memory value="False"/>
			<remove_output_softmax value="False"/>
			<reverse_input_channels value="False"/>
			<save_params_from_nd value="False"/>
			<scale_values value="()"/>
			<silent value="False"/>
			<static_shape value="False"/>
			<stream_output value="False"/>
			<transform value=""/>
			<unset unset_cli_parameters="batch, counts, disable_fusing, disable_gfusing, finegrain_fusing, input_checkpoint, input_meta_graph, input_symbol, mean_file, mean_file_offsets, move_to_preprocess, nd_prefix_name, pretrained_model_name, saved_model_dir, saved_model_tags, scale, tensorboard_logdir, tensorflow_custom_layer_libraries, tensorflow_custom_operations_config_update, tensorflow_object_detection_api_pipeline_config, tensorflow_use_custom_operations_config, transformations_config"/>
		</cli_parameters>
	</meta_data>
	<quantization_parameters>
		<config>{
		'compression': {
			'algorithms': [
				{
					'name': 'DefaultQuantization',
					'params': {
						'num_samples_for_tuning': 2000,
						'preset': 'performance',
						'stat_subset_size': 300,
						'use_layerwise_tuning': false
					}
				}
			],
			'dump_intermediate_model': true,
			'target_device': 'ANY'
		},
		'engine': {
			'models': [
				{
					'name': 'face-detection-retail-0004',
					'launchers': [
						{
							'framework': 'dlsdk',
							'adapter': 'ssd',
							'device': 'CPU'
						}
					],
					'datasets': [
						{
							'name': 'wider',
							'data_source': 'PATH',
							'annotation_conversion': {
								'converter': 'wider',
								'annotation_file': 'PATH'
							},
							'annotation': 'PATH',
							'dataset_meta': 'PATH',
							'preprocessing': [
								{
									'type': 'resize',
									'size': 300
								}
							],
							'postprocessing': [
								{
									'type': 'resize_prediction_boxes'
								},
								{
									'type': 'cast_to_int'
								},
								{
									'type': 'filter',
									'apply_to': 'annotation',
									'height_range': 60,
									'is_empty': true
								},
								{
									'type': 'filter',
									'min_confidence': 0.0,
									'apply_to': 'prediction'
								}
							],
							'metrics': [
								{
									'type': 'map',
									'ignore_difficult': true,
									'include_boundaries': false,
									'allow_multiple_matches_per_ignored': false,
									'distinct_conf': false
								}
							],
							'_command_line_mapping': {
								'annotation_file': 'PATH'
							}
						}
					]
				}
			],
			'stat_requests_number': null,
			'eval_requests_number': null,
			'type': 'accuracy_checker'
		}
	}</config>
		<version value="1.0"/>
		<cli_params value="{'quantize': None, 'preset': None, 'model': None, 'weights': None, 'name': None, 'ac_config': None, 'max_drop': None, 'evaluate': False, 'output_dir': 'PATH', 'direct_dump': True, 'log_level': 'INFO', 'pbar': False, 'stream_output': False, 'keep_uncompressed_weights': False}"/>
	</quantization_parameters>
</net>
